Assets/Data/ReLU(Overfitted).onnx (onnx, 220775 bytes, 6 tensors)

l1.bias f4 [64]
00000000: 7f34 143d 90ae 1d3e e431 15bc 73d6 45be
00000010: c0de 993d 9c52 83be e2b5 98bd 65df 27bd
00000020: 8b60 85ba 67cb 133e b887 6b3e e895 333e
00000030: d826 373e f593 bb3d 7728 8cbb 9cff 0b3d
00000040: e6ca 01bc 3984 50bb 0df9 9dbd a51d 393e
00000050: cced fd3d 1365 003e c1f8 80bc 6856 a33d
00000060: ef62 4dbd 4abd 3d3d fd2f ec3a 3cfd 29be
00000070: 1458 73bd c470 73be 8e02 293d 337d d33d
00000080: b066 14be 5598 2dbe 9dfb 0a3e adbf 3ebd
00000090: c007 dd3d 9ca0 113e e248 05bc addd 373e
000000a0: 10e4 063c 2b6f 763d 0275 913e d99d a93e
000000b0: f589 b5bc 0793 03bd 7f36 51be 3621 883e
000000c0: 580f 34bc 2d0d 963e cd82 cd3c 0cd8 e43d
000000d0: 59ae 5d3e 4ef7 083d 2935 d23e 44a3 0d3d
000000e0: e5f3 8dbd 990b ba3d 063c 69bd c9e7 303e
000000f0: 5039 793d 2cf4 ae3d 94e8 363e 6992 1cbc
0.036182877 0.15398622 -0.009106133 -0.19320087 0.07513189 -0.25648963 -0.074565664 -0.04098453
-0.0010175867 0.1443306 0.23000991 0.17537653 0.17885911 0.0915908 -0.0042772847 0.034179315
-0.00792191 -0.0031817092 -0.07713518 0.18077715 0.12398872 0.12538557 -0.015743615 0.07975465
-0.05014318 0.0463231 0.0018019673 -0.16600507 -0.05941017 -0.23773485 0.041262202 0.10326614
-0.14492297 -0.16952641 0.13572545 -0.046569515 0.10792494 0.14221424 -0.008135052 0.17955656
0.008233085 0.06016461 0.28409582 0.3312824 -0.02216051 -0.032122638 -0.20430945 0.26587838
-0.010989986 0.29306927 0.025086785 0.1117402 0.2164854 0.033438973 0.41056183 0.03457953
-0.06931285 0.09084243 -0.05694201 0.17275919 0.060845673 0.08542666 0.17862159 -0.009556391

l1.weight f4 [64, 784]
00000000: 8c50 ac3c 62b9 e23c 5034 493b 488c c8bb
00000010: 1076 56bb 56f4 aa3c 00a1 8439 f267 b63c
00000020: b466 273c e03f bf3c 6c52 8dbc 2525 fdbc
00000030: c568 efbc 9fc0 d93b d46e 013c 9088 843c
00000040: 6325 d5bc e85d 923b 7c45 00bc a0a1 b2ba
00000050: 1021 563b 7c39 c1bc 7cfa d93c a821 a73b
00000060: 08ee dc3b 805a 95bc a055 a4ba 4572 e5bc
00000070: d394 cfbc 6a96 5ebc c0f2 693c c28f f93c
00000080: 9793 b53c 34a3 ebbc 0aba 8abc b382 793c
00000090: 25f3 013c ba5c b63c cf0f 51bc cfeb 553c
000000a0: bbf0 e1bc f3a1 a2bc ad43 e63c 6cd9 143d
000000b0: 594f 5cbc 31c7 8f3c 29fe a43c 1670 1a3c
000000c0: 03c1 f8bc 2b46 c6bc f5a8 0c3d c3e3 bb3c
000000d0: 1217 3dbc 369c f33c e7af 0e3d 60c9 103c
000000e0: 484f f5bc c89b e03b be16 f0bc 3c6e bcbc
000000f0: e20b aabc 154c fc3b 69ec 9e3c bf7b 97bc
00000100: bb7a e13c 97f2 fabb a071 193d 0847 703c
00000110: b989 94bc 8089 edbb c6af 2a3d a12d 3d3c
00000120: bf8d b5bc ef59 5b3b 0459 deba d41b 153c
00000130: ea58 843c 69dc b93c ba9e 96bb 3639 edbc
00000140: 2d03 ae3c 382d 1b3c 4064 273c a064 be3a
00000150: 40c6 223c 27a2 013d 1fae cb3b 5b29 ea3c
00000160: 9671 c4bc 51af f8bb e70b 1abd 1aa5 83bc
00000170: 311b d4bb 04b1 0dbc 5f8a 343d 8e90 ca3c
00000180: 9997 373d 3c57 9b3d 954b e03b 9ea9 a1bc
00000190: 347b 323d 6b0a 23bc 114d 8bbb 5dec 60bd
000001a0: 593e 90bd b2c5 c63c 36ae 7c3c b65b 4b3d
000001b0: 46ac 0abd 5cb8 d5bc 1983 f13c 4072 583c
000001c0: 74cd 07bd 3705 0ebd 0586 bbbc 9af8 3bbc
000001d0: 1984 93bc 8341 b4bc 48fb 1fbc 5f39 30bc
000001e0: c156 02bd e278 b7bb 67c3 b6bc 1f6b 86bc
000001f0: 6266 333d f231 4b3d 54fe 863d daa8 883c
00000200: e63c 323d 5565 133d 8d0e 1c3c e825 273d
00000210: bfa9 dc3d 7118 563d 5064 d63b 8e3b d5bc
00000220: 55c4 8ebd 30c1 28ba b93c c8bc 727f fbbc
00000230: 6e12 4ebc da08 c03c 9301 a6bc 37fe 0abd
00000240: efbf 17bd dda3 2bbc 01b7 6bbd 1c94 7dbd
00000250: 4816 2bbd 19c7 12bc 6931 9abd 2235 283c
00000260: a7d9 d13d b56c 4f3d 2d0a 4d3d 3b77 583d
00000270: 5fdb 943c af99 3e3c fd1a 7f3b 0772 fe3c
00000280: 9b57 39bc 0e10 bb3c 23ec 2039 dc24 40bd
00000290: 2578 8b3b 45af e2bc b70a debc fc31 a8bc
000002a0: 6304 8abc f4d7 593c 48ea 52bb 129d d13c
000002b0: bfdb 39bd 39b7 9ebd 0f92 cbbd 5ea8 4abd
000002c0: ecd6 8abd 5e58 8cbd 2e1e b8bd d0dd 063d
000002d0: f78a ca3d 4dac 523d ee35 c33b fe0a db3d
000002e0: b84f 0b3d f3f8 40bd 548a 87bd b8f4 823c
000002f0: 376b 49bb eaf4 07bb 8a9e 563d 79a3 8c3b
00000300: ee78 4cbd 5c7b 823c 0813 523c d625 083a
00000310: e2c7 8f3c 800e 12bd 6d68 0abd 7b3c 29bd
00000320: 7b0b 99bc 6b50 6bbc 72a9 c2bd 60f2 6fbd
00000330: 478d 10be b85c 07bc 16b5 323d c3ae ad3c
00000340: e8d0 af3d a70d 6e3c 9835 9dbb 10ca 6d3d
00000350: 8325 a6bd 9638 c4bc db9f 05bd d420 66bc
00000360: 82e5 a23c 1086 a4bb 6749 983d 2e0a 623d
00000370: afd5 13bd 9b9b af3c afe8 15bd ad58 333c
00000380: ee5b e33b e377 73bc 5774 fe3b b704 0bbd
00000390: 3761 00bd dfb8 66bd 0360 e1bc 710c 0fbd
000003a0: e781 aabd 50d4 29bc 493d a73d c12b 0b3e
000003b0: 2878 273e 56ee 283e d60c 023e 4e0d 743c
000003c0: 4c17 30be e2c8 84bd b049 aebc 639b 9abc
000003d0: 4b9c 96bd b535 75bd c6aa 903d ae57 d83d
000003e0: 2184 d03c 4c0a d73c 5918 103d ee9f 2f3b
000003f0: d802 a33b e39c 9a3b 76a6 8d3c 1e5c d4bb
0.021034501 0.027676288 0.0030701347 -0.0061202385 -0.003272418 0.020868462 0.00025296956 0.022266362
0.010217357 0.023345888 -0.017251216 -0.030901501 -0.029224763 0.0066452767 0.007899959 0.0161784
-0.026018804 0.004466761 -0.007829066 -0.001362849 0.0032673515 -0.023586981 0.026608698 0.0051004477
0.0067422427 -0.01823163 -0.0012537725 -0.02800859 -0.02533952 -0.013585666 0.0142790675 0.030464057
0.022165103 -0.028764345 -0.016934413 0.015228915 0.007931505 0.022261012 -0.012760117 0.013056709
-0.02758061 -0.019852614 0.028108442 0.036340162 -0.013446652 0.017551037 0.020140724 0.009426137
-0.030365473 -0.02420338 0.034340817 0.022935754 -0.011541145 0.029737573 0.034835722 0.008837074
-0.02994503 0.006854508 -0.02930772 -0.023001783 -0.02075762 0.0076994994 0.019399839 -0.018491624
0.027524343 -0.0076583135 0.037461877 0.014665373 -0.018132078 -0.0072490573 0.041671537 0.011546523
-0.022162316 0.0033470353 -0.0016963785 0.009100873 0.016155679 0.022688108 -0.0045965584 -0.028957944
0.021241749 0.00947123 0.010216773 0.0014525838 0.009934962 0.03164878 0.006215825 0.028584173
-0.023979943 -0.0075892587 -0.037609007 -0.016069937 -0.006472968 -0.008648161 0.044077273 0.024727132
0.04482231 0.07584998 0.0068449476 -0.0197342 0.043574527 -0.009951214 -0.0042511304 -0.054912914
-0.07043142 0.02426419 0.0154223945 0.04964801 -0.0338557 -0.026088886 0.029481458 0.013210833
-0.03315492 -0.034672942 -0.022891054 -0.011472845 -0.018007325 -0.022003895 -0.0097645 -0.010755866
-0.031821016 -0.005599127 -0.022309972 -0.016408501 0.04379881 0.04960818 0.06591478 0.016682077
0.04351511 0.03598531 0.009524954 0.040807635 0.10774564 0.052269403 0.00654272 -0.026029374
-0.06971041 -0.00064374786 -0.024443017 -0.03070042 -0.012577636 0.02344172 -0.020264423 -0.033933844
-0.037048277 -0.01047608 -0.057547573 -0.061908826 -0.041769296 -0.008958601 -0.075289555 0.010266574
0.10246592 0.05064078 0.050058533 0.052848082 0.01817101 0.011633321 0.0038925998 0.031060232
-0.011312391 0.022834804 0.00015346757 -0.04691015 0.0042562657 -0.027671466 -0.027104719 -0.020531647
-0.016847795 0.013296116 -0.00321831 0.025587592 -0.04537558 -0.07749791 -0.09939968 -0.049476974
-0.06779274 -0.06852792 -0.08990131 0.03292638 0.09889787 0.05143385 0.0059573567 0.10695456
0.034011573 -0.047112416 -0.06618181 0.015985832 -0.003073407 -0.0020745345 0.05239729 0.0042919484
-0.049920015 0.015927963 0.01282192 0.0005193626 0.017551366 -0.03565836 -0.033790994 -0.041317444
-0.018682232 -0.014362435 -0.095049754 -0.058580756 -0.14116393 -0.008261852 0.04362973 0.021201497
0.085847676 0.014529622 -0.0047976486 0.05805403 -0.081126235 -0.023952764 -0.032623153 -0.014045913
0.019884828 -0.0050208643 0.074358754 0.05518549 -0.036092456 0.021436503 -0.036598857 0.010946435
0.006938449 -0.014860126 0.0077653336 -0.033940043 -0.03134271 -0.05632865 -0.027511602 -0.034923974
-0.08325558 -0.010365561 0.08165986 0.1359091 0.1635443 0.16497168 0.12700209 0.01489575
-0.17196387 -0.06483628 -0.021275371 -0.018872922 -0.07354029 -0.059865672 0.070638224 0.105635986
0.025453629 0.026250027 0.03517947 0.0026798206 0.0049747042 0.0047184094 0.017291289 -0.006480708

l2.bias f4 [64]
00000000: df4e a53d 66ba 5b3d 383e 083d 6f25 a03d
00000010: 9690 293e 2e0d 9dbb 65a3 7c3d 229d b23d
00000020: 4859 a03e b95f cfbd 32bc 453e f73f f23c
00000030: 418f 24be 1c99 f93d 1017 023c cf5b 3c3e
00000040: 764a 323e 41c1 c73d 8d6e ba3d 2fa3 3c3d
00000050: 265e 80bd b7c2 82bb 8022 0d3b 9bb7 1a3e
00000060: d09d 08bd 9638 f8bd d6d6 1f3d c159 703e
00000070: 4f6e 813e b52c 013d fb6e 8a3e 45b1 e23d
00000080: 97e7 2cbd 9406 f4bb 5436 d23d bb4c 79bd
00000090: 0268 aabd c4dc ac3d 678d c53d 74f5 9d3d
000000a0: ed6d 85bb 9f55 5ebd d861 d83c bc6d d3bd
000000b0: 0cfd 18bd e909 903e c5ec acbd 6481 2f3e
000000c0: b322 7e3d f3af c03d 0031 183e 3b98 153d
000000d0: 70e1 383e d7cc e7bd 746b e9bd b23c 25bd
000000e0: 9ff1 3a3e 1a21 25bd c066 b0bc 533a 843e
000000f0: 37f3 b83c 058f 833d 2cbe 3a3d 4ea4 dc3d
0.08071684 0.05364456 0.03326246 0.0781964 0.16559061 -0.004792831 0.061679263 0.08721377
0.31318116 -0.101256795 0.19310072 0.029571516 -0.16070272 0.121874064 0.007940069 0.18394397
0.17411217 0.09753657 0.09103117 0.04605406 -0.062679574 -0.003990497 0.0021535456 0.15109102
-0.033353627 -0.12120168 0.039023243 0.23471738 0.2527947 0.031536777 0.27037796 0.11068968
-0.04221305 -0.0074470732 0.102642685 -0.06086419 -0.08320619 0.08440545 0.09646111 0.07712832
-0.004071942 -0.054280873 0.026413843 -0.103236645 -0.0373507 0.2813256 -0.08443598 0.17139202
0.06204481 0.0940856 0.14862442 0.03652213 0.18054748 -0.11318367 -0.11397448 -0.040341087
0.18256234 -0.04031477 -0.02153337 0.25825748 0.022576911 0.06423763 0.04559152 0.10773526

l2.weight f4 [64, 64]
00000000: 0a55 383e 5859 8abd 7b21 653d 4a8e 89be
00000010: 358f 89bd 31b5 0b3e 1483 08be 6193 213e
00000020: 319e af3c 66e4 48be ce15 b23c 4714 48be
00000030: 1bc4 b0bd dd4d f33d 59cf 81bd 47da 43be
00000040: 8a42 713e 54f7 bdbd b9f5 d13e 62df 80be
00000050: 071c c4bd ae9a 453e 4e42 4b3e 1539 0fbd
00000060: 1cbe 7c3d 7069 1c3e d28e 29be 650c f03c
00000070: 8626 70be 0e33 56be e943 4c3c cfd9 16be
00000080: c670 0e3e db41 3b3d 533a d5bd 6279 f4bd
00000090: f0e1 253e bfbf 903d 4375 21be 1604 d9bd
000000a0: 606d e0bd 474b da3d 0620 74bd 6314 29bd
000000b0: a110 a1bc 1be3 003e ad1b 39bd 2648 74bb
000000c0: 07be f33b d644 37bd 172d 033d 2a07 69ba
000000d0: ef7d 3bbe af0a 45bd 16e8 d23d 29f1 513e
000000e0: 1deb ecbd d18a ae3c 9e1a 863d c113 983e
000000f0: 480f cabd 7694 38be 974d 1d3e bf58 f93c
00000100: 2cf2 c83d 35f9 0f3e b057 133e 7a9a 23be
00000110: 6b48 793e 6572 6abe cf8a 36be 3dd1 2c3b
00000120: 8808 1bbe dd27 b63d 2441 653e 1a97 aebd
00000130: e0d0 80bd d69a e4bd b223 483d 75cb 16be
00000140: 7cbc 12bd 9f1c 24bd c50a 1b3e e6aa 3c3e
00000150: 7a06 013e 20e6 2fbd 86b1 d3bd 8ccb 4cbe
00000160: 1228 3d3e 30bc 4c3c 8a8b 29bd 26de 7dbe
00000170: 2bbf cebd ed28 81bd b1ce b0bd ae7f 043d
00000180: fb66 efbd 322b 83be 4497 033f 2523 743e
00000190: 0110 333e c534 353d 2ec9 a73b 79c2 04bb
000001a0: c16f 94bc a8ab 893e 7c0e d83d da5c 9b3c
000001b0: da2a b13d 4768 d33d 964a 90bc 2ea1 df3d
000001c0: 7c8a fdbd 9603 dd3d 9fb7 b03d 305c 0abd
000001d0: feb5 d03d a8a3 4c3e 2aca 843e 03f9 34bc
000001e0: 4d07 0cbe 4086 4a3e 9654 50bd a3f4 f73c
000001f0: 86fb c63d d2c4 9f3d 001a acbd 5ba4 f1bd
00000200: 51db 823d d16a 223b e7be 7b3e 9de3 5c3d
00000210: e8ae cebd 3871 ae3d 348b 47be 0741 91bd
00000220: 9f85 2dbe ff97 473e dc53 b1bd 345c 6fbd
00000230: 6208 443e 2575 93bc 59be a63c 9563 3a3d
00000240: 3656 5f3e 31c0 653b 00ba 9a3d 3ba8 84bc
00000250: e829 3ebe e11f 8ebe 067f b9bd 83e9 96bd
00000260: a705 19be 8a4e 48bd 6b69 5e3c 2dfc 52be
00000270: 0d25 2ebd 3cb2 4c3e 8888 e1bd 37de 4dbe
00000280: 04fe ce3c 1abc 44bd bba5 383e c153 27be
00000290: 5cad f43d 9825 493e 93f1 37be 34d7 ca3d
000002a0: 5df7 013d 52fd c13c 8d8c 2f3e 6317 893e
000002b0: 1925 853e b28b a73d 9748 72bd 3c5a 88be
000002c0: d776 acbd 9b9c 1dbd e319 69bb 5f90 073e
000002d0: 2ccf 59bc 5310 433e 97c2 adbc b4b0 bc3c
000002e0: 13f5 83bd 8152 133e 0d35 323e 92a6 9b3b
000002f0: 3825 debb fb8f 9ebd ab2a d23d 6c4d cebc
00000300: d29f 59bd 2d3a 0dbe b5c3 3bbe afe0 c43c
00000310: 5eb4 7bbc 8875 973e 2491 81be fa3c 40be
00000320: 4dba 423e f2b4 4e3e 0622 39be ad78 34bd
00000330: e52d 813e f473 2c3e 5cb2 78be 8736 96be
00000340: c0ba fbbc 9ff6 fdbd cc0f 9abe 6edc 16be
00000350: afc4 16be 1edc 51bb 57e2 383e bdf8 81bd
00000360: 2588 edbd 8937 0d3d a44f 143f a2a1 1ebe
00000370: a648 f7bc 59b7 9e3e af9a 69bc c79f d43d
00000380: 9368 f7bd 5d84 303e b3f2 91be 693f 153d
00000390: 5a1c 4d3d 1142 edbd 7f56 e03e bc56 c13d
000003a0: 91b8 a4bd 587e 6f3e af7d 43be 58d0 93bd
000003b0: 445f e2bd aa53 a0ba 3135 2dbe e457 0bbd
000003c0: 41c8 ae3d 9be3 00be 6cf3 cf3d 71f0 25be
000003d0: 6567 8b3e 1ccf 0abe 612f 723d 7936 d4bd
000003e0: 9a90 833d 21f1 8fbd 596c 593e 8b2c 42bd
000003f0: 533b 97bd e003 703e 068f ea3d 5c9a 65bd
0.1800119 -0.06755322 0.055940133 -0.2686637 -0.06716768 0.13643338 -0.13331252 0.15778877
0.021437736 -0.19618377 0.021738913 -0.19538985 -0.08631154 0.118800856 -0.063383766 -0.19126235
0.23560539 -0.0927569 0.41007784 -0.25170428 -0.09575658 0.19297287 0.19849512 -0.034966547
0.06170474 0.15274596 -0.16558388 0.029302785 -0.23452196 -0.20917913 0.012467363 -0.14731525
0.13910207 0.0457171 -0.10411515 -0.119372144 0.1619947 0.07067823 -0.15767388 -0.105964825
-0.109583616 0.10658889 -0.059600852 -0.041279208 -0.01966125 0.12586634 -0.04519241 -0.003727445
0.0074384245 -0.04474338 0.032025423 -0.0008889312 -0.18309759 -0.04810589 0.10298173 0.20502152
-0.11568282 0.021306427 0.065480456 0.2970257 -0.09866196 -0.18025383 0.1536163 0.030437825
0.098118156 0.14059909 0.14388919 -0.15976897 0.24344032 -0.228952 -0.17826389 0.0026369833
-0.15139973 0.08894322 0.2238813 -0.08524914 -0.0628984 -0.11162345 0.048862167 -0.1472605
-0.035824284 -0.040066358 0.15140827 0.18424568 0.12600127 -0.042944074 -0.10336594 -0.19999522
0.18472317 0.012496039 -0.04139284 -0.24791774 -0.10095056 -0.06306634 -0.08633173 0.032348327
-0.11689564 -0.25618893 0.5140269 0.23841532 0.17486574 0.044239778 0.005120418 -0.0020257516
-0.018119695 0.26888776 0.10549638 0.018965174 0.086507514 0.10322624 -0.01761369 0.109194145
-0.123799294 0.107916996 0.08628773 -0.033779323 0.10190962 0.19984305 0.2593549 -0.011045697
-0.1367466 0.19777775 -0.050861917 0.030268019 0.09715943 0.07801212 -0.084033966 -0.117989264
0.063894875 0.0024782906 0.24584542 0.053928006 -0.100919545 0.085176885 -0.19486696 -0.07092481
-0.16945504 0.19491576 -0.08658573 -0.05843754 0.19143823 -0.018000195 0.020354437 0.045505125
0.2181023 0.0035057182 0.07555008 -0.0161935 -0.18570673 -0.27758697 -0.09057431 -0.073687576
-0.14943562 -0.048903026 0.013574938 -0.2060401 -0.042515803 0.19989866 -0.110123694 -0.201043
0.025267608 -0.04803095 0.18031971 -0.16340543 0.11947128 0.19643247 -0.17963247 0.09904328
0.031730045 0.023680363 0.1714346 0.26775655 0.26004866 0.08180942 -0.05915126 -0.26631343
-0.084211044 -0.03847943 -0.0035568408 0.13238667 -0.0132940225 0.19049196 -0.021210952 0.023033477
-0.064432286 0.14386941 0.1740305 0.0047500813 -0.006779339 -0.07742306 0.102620445 -0.025183402
-0.053130932 -0.13791724 -0.18336375 0.024032919 -0.015362827 0.29581857 -0.25306046 -0.1877326
0.1901638 0.20186213 -0.18079385 -0.044060398 0.25230327 0.16841108 -0.24286789 -0.29338476
-0.030728698 -0.12400555 -0.30090177 -0.14732525 -0.14723466 -0.003202207 0.18055092 -0.06346271
-0.11598233 0.03447679 0.5793402 -0.15491346 -0.030186009 0.30999258 -0.014258071 0.103820376
-0.12080493 0.17237993 -0.28505477 0.036437426 0.050075866 -0.11584867 0.4381599 0.094403714
-0.08043016 0.2338804 -0.19090913 -0.07217473 -0.11053327 -0.0012231965 -0.16914822 -0.034019366
0.08534289 -0.12586825 0.10153851 -0.16205002 0.2722732 -0.13555568 0.059127215 -0.10361952
0.06424065 -0.070284136 0.21232738 -0.04740576 -0.07384362 0.23438978 0.11453061 -0.05605541

l3.bias f4 [10]
00000000: 6bf6 3abe 0fee 8e3d 2a3f d6bd 522d 29be
00000010: 7349 473d adfb d43d f1e2 35be 2342 443c
00000020: 6755 443e b223 8c3e
-0.18258063 0.06979 -0.10461266 -0.16521195 0.04865403 0.10399566 -0.17762353 0.011978659
0.19173203 0.27370983

l3.weight f4 [10, 64]
00000000: 2013 91be e6c3 823d d3b1 94bd f3b6 153e
00000010: aae2 883d 973e 8cbe 287b 833e 5695 093e
00000020: 7d7e 81bd f299 98be f226 c23d c4a6 96be
00000030: aa92 abbe 912e dfbd 97a7 a03e 5aa2 f93e
00000040: fde9 e2be df1c e13e 6a16 19bf 9e3a df3e
00000050: 79a5 bd3e 3cbc 5fbc 972e 48be 2b1f abbe
00000060: 1722 4c3d 4ee2 8a3e 4262 fbbe 4167 f83d
00000070: 1b6e 673e 1f14 e4be 9a8d 26bf f61c c13e
00000080: e816 3c3e 2d46 c63e 6f5a 103f 82ef e03e
00000090: 8bb0 84be ecfe f53e 78eb 2fbf 880f 1d3f
000000a0: 047a e63e 630e 9f3d be0a 80bd 050a 653e
000000b0: 46c0 3ebe 984e d3bd 99ba 0d3f 68de dcbe
000000c0: 073d d1bc c21f 12be 0b00 4cbf 2516 1fbc
000000d0: 0f26 d3be 4549 cabe 7321 db3e 2393 adbd
000000e0: 2d83 09bf 8bf1 6f3d 155d 433d 4ca3 1abf
000000f0: e54f dd3e c9ac 45be cc83 633d c970 db3d
00000100: 0427 b23e 0bbb 923e 3f73 5cbe 39e4 9b3e
00000110: d710 033f eadb e53e c74d 15bf 77b9 9d3d
00000120: a667 68bf 4989 133d 4efa 7b3e e3e3 dbbc
00000130: 0318 a53e 51b9 9039 8902 71be 2dc2 0bbf
00000140: 91f5 bb3e 84ce 96be 61d0 b13e c27f a2be
00000150: 0eec 34bf 46db 903e f4d9 e33e ba98 36be
00000160: 792a d73e e27e 23be b583 143e af37 423e
00000170: a25b 37bf c114 c83e 62aa 5abe 5384 9b3e
00000180: 9c9b a23d b58a 103e 8020 b0be 4d12 753e
00000190: 2ca4 0f3e d4c5 5e3e 5473 cbbc de03 8ebe
000001a0: 002b f0be faec 423f cc84 8dbe dddb 1a3c
000001b0: f4a6 83be 4ee1 f1be b5fb aabe 05f2 c23e
000001c0: 2575 12be 8f75 53be b44b cf3e fcf3 d5be
000001d0: 8f47 8d3e 3a02 8e3e ce72 f43e dda1 cabe
000001e0: 0b74 1abd 8712 2abd 47d6 0e3e 7505 b0bd
000001f0: 6924 fb3d 2c7c 763c a1cc d0be d90c 4ebd
00000200: 5528 e13e 100a 75be 4ea9 f63d feb6 1ebf
00000210: 791f 64bf e142 813e 837a 503e fc89 1cbe
00000220: ebef 833e 506f be3e 3410 433e 668e 0a3f
00000230: cb72 0bbe 9fa2 773d fefb 163e 9487 fa3d
00000240: 6702 123e a627 a53e 24eb 373e 0ed2 a93d
00000250: d10c 563e c59c 133e 2e2f b63e 22ec 863e
00000260: 0768 fe3e 727d 553e 1bca 38bf 7c1d a33c
00000270: 611a dbbe a1c1 ff3e c1d0 abbe aa1a 8ebe
00000280: 213e d63e 0a51 b33e 2cad 00bf c0de 9fbe
00000290: bc62 66be 6bad f03e e5b4 a6be 85ef b2bd
000002a0: dd4e 103e 6d46 07bf abe6 3d3f 766a b8bd
000002b0: 8255 843e 74ba c63d 0845 c53c 9d4c b83e
000002c0: 6747 3a3c 55bd a13e 06e4 dbbc c532 a1bc
000002d0: b001 b1be 8c1f 023e dfe1 073f 3bf9 9e3d
000002e0: 1c62 15bf d26b 93be 7a92 273f 2bb6 24bf
000002f0: 49f3 f3be c8eb eabe 4fcc 99be f448 183e
00000300: 5366 f9be ef8e 3dbf 85ad 28bd d3d0 fb3e
00000310: f6ec 1dbf ca65 11be 8e32 9e3e 0861 cabe
00000320: bfed a43e b75b 153f 5f63 5a3e 8241 d83e
00000330: dfc3 a43e ffc7 31bd fce0 ddbd 0beb 36be
00000340: 45eb 733e 81c7 783e 71c1 c8be c4a3 cabe
00000350: 83a7 a0be 52fc 653e 6bb4 8f3e 3cda ef3d
00000360: 1d55 fdbe 143c aebe 336b 9a3e 8f8e e4bd
00000370: 0f67 663e def5 073f fb0f 74bd 2ea5 423e
00000380: 4ad1 ed3d 9fee 493e fc0d cabe a041 a7be
00000390: c34a 1ebe 3661 f6be 51cd b03e f4be 233e
000003a0: d1b3 f93d 7d22 b8be 173f 42be 0763 b23e
000003b0: 4d5c 793d f08d eebe 41ea a63e 79ad fcbe
000003c0: 2cd9 ebbd 6104 1e3f 0bb6 ec3e 6c9a 5ebe
000003d0: 94be b1be 12cb 273e aa9a a0bd 2731 92bd
000003e0: 430f ee3e 9c25 d6bd e25c 073f ac5a 0dbf
000003f0: d91c 193e c29a 363f 1cf6 9ebe 9270 67bc
-0.28334904 0.06385021 -0.0726048 0.14620571 0.06683858 -0.27391502 0.25679898 0.13435873
-0.06322954 -0.2980495 0.094800845 -0.29424107 -0.33510333 -0.10897554 0.3137786 0.48756677
-0.44319144 0.4396734 -0.59799826 0.4359941 0.37040308 -0.013655718 -0.19549023 -0.33422217
0.049837198 0.27125782 -0.49098402 0.12129069 0.22600596 -0.445466 -0.65059817 0.37717408
0.18368113 0.38725415 0.5638799 0.4393273 -0.25915942 0.48046052 -0.6871867 0.61351824
0.45014966 0.07766416 -0.06252049 0.22367103 -0.18628034 -0.10317725 0.5536285 -0.43138433
-0.025541795 -0.14269927 -0.79687566 -0.0097098695 -0.41239974 -0.39509025 0.42798957 -0.0847533
-0.53715783 0.058579963 0.04769619 -0.6040542 0.43225017 -0.19304194 0.055545613 0.107148714
0.34795392 0.28658327 -0.21528338 0.30447558 0.5119757 0.44894344 -0.58321804 0.0770139
-0.90783155 0.036019597 0.24607202 -0.026842063 0.32244882 0.00027603892 -0.23536123 -0.54593164
0.3671079 -0.29454434 0.34729293 -0.31738096 -0.7067269 0.28292292 0.44502223 -0.17831698
0.42024592 -0.1596637 0.14503367 0.18966554 -0.71624196 0.39078334 -0.21354058 0.30374393
0.079398364 0.14115413 -0.34399796 0.23932762 0.1402747 0.21755153 -0.024835266 -0.27737325
-0.46907806 0.7614285 -0.27640378 0.009451834 -0.25713313 -0.47242206 -0.33395162 0.3807527
-0.143025 -0.20650314 0.40487444 -0.41787708 0.27593657 0.27736074 0.4774384 -0.39576617
-0.037708323 -0.041521575 0.13948928 -0.08594791 0.12262804 0.015044253 -0.4078112 -0.05030522
0.43976083 -0.2392962 0.12044011 -0.61997974 -0.89110523 0.25246337 0.20359235 -0.15287012
0.2576898 0.371943 0.1904915 0.5412353 -0.13618009 0.060457822 0.14744565 0.12232891
0.14258729 0.32256812 0.17960793 0.08292018 0.20903327 0.14415272 0.3558287 0.2635203
0.49688742 0.20848635 -0.7218339 0.01991152 -0.42793563 0.49952415 -0.33557704 -0.27754718
0.41844276 0.35022765 -0.5026424 -0.31224632 -0.22498602 0.47007307 -0.32559887 -0.08737091
0.14092584 -0.52841836 0.74180096 -0.09004681 0.25846487 0.09703532 0.024080768 0.3599595
0.011369563 0.3158976 -0.026842128 -0.01967753 -0.345716 0.12707347 0.53079027 0.07762381
-0.5835283 -0.28793198 0.6545788 -0.64340466 -0.4764655 -0.45883012 -0.30038688 0.1487158
-0.4871088 -0.74046224 -0.041181106 0.49182758 -0.616897 -0.14198986 0.30897945 -0.39527154
0.32212636 0.5834307 0.2132697 0.42237478 0.32180688 -0.04340362 -0.10833928 -0.178631
0.23820217 0.24294855 -0.39210084 -0.39578068 -0.313778 0.22459534 0.28067335 0.11711547
-0.49479 -0.3403021 0.30159912 -0.111600034 0.22500251 0.5310954 -0.059585553 0.19008324
0.11612184 0.19719933 -0.39463794 -0.32667255 -0.15458207 -0.4812104 0.34531644 0.15990812
0.121925004 -0.35963812 -0.1896938 0.34841177 0.06087904 -0.46592665 0.32600597 -0.493511
-0.115160316 0.6172543 0.46232638 -0.21738595 -0.34715712 0.16386059 -0.07842 -0.07138281
0.4649602 -0.10456392 0.528761 -0.5521648 0.14952411 0.7132989 -0.31047142 -0.01412596
