Assets/Data/ReLU.onnx (onnx, 220775 bytes, 6 tensors)

l1.bias f4 [64]
00000000: 85a7 02be a677 ae3d 7da6 3abe 7fc3 023e
00000010: 3ed4 db3d e0c6 bd3d 3834 db3b 1458 123e
00000020: 7e71 bf3c 8589 a03e 2a6e e13d 19fb b53e
00000030: 3304 023e fca2 293d 46f9 1d3e db6a c9bd
00000040: 86f9 c53c 5423 a63e 0ae5 e0be c292 e03d
00000050: 2c46 0ebe 1498 c93d 74e6 7f3c b042 5ebe
00000060: 8fb8 293e 339a f93b 031a e1bd d437 163d
00000070: 46bd 65bd 601a 963d bb8f 1fbe 6d32 b0bd
00000080: 17fa 69bc b9cb 61be d451 743e 8c8c a5bc
00000090: 1254 223d 88dd 96be 3f0a cd3e efee 4b3e
000000a0: 5b15 ba3d 24eb 81bd e21a fc3d b75e 1fbe
000000b0: 7d42 6abe 10e9 473e 3394 a63e 4d89 07be
000000c0: f3b0 993c 7cec 9d3e bf1b 2fbe 444b 543d
000000d0: 66d9 40be 0ee0 463e 9610 013e bebd d8bd
000000e0: 1f6c 1cbe 55d8 923e bc95 403d 6797 913d
000000f0: 0bbd 0b3e 6651 803d 5a11 823d 5f4f 6abe
-0.12759216 0.08518915 -0.18227573 0.12769888 0.10733841 0.09266448 0.0066895746 0.14291412
0.023369547 0.3135492 0.1100734 0.35543135 0.12696914 0.0414152 0.15427122 -0.09834834
0.024166834 0.32448828 -0.43924743 0.10965492 -0.13893956 0.0984346 0.015618909 -0.21705127
0.1657431 0.007617259 -0.109912895 0.036674336 -0.05608871 0.073292494 -0.15582173 -0.08603368
-0.0142808175 -0.2205037 0.2385934 -0.02020862 0.039630957 -0.2946589 0.4004688 0.19915365
0.090861045 -0.06343678 0.12309815 -0.15563475 -0.22876926 0.195225 0.32534942 -0.1323597
0.018761134 0.30844486 -0.17100428 0.05182959 -0.18832931 0.19421408 0.12603983 -0.105830655
-0.1527562 0.28680673 0.047017798 0.07108956 0.13646333 0.062655255 0.06350966 -0.2288184

l1.weight f4 [64, 784]
00000000: 587f adbc e833 813c 6c78 b4bc 87e2 90bc
00000010: d4f4 413c a041 723b 20fa 0ebc 0c19 853c
00000020: 60f8 61bc e0ec f63b 21fc f6bc 95b6 bcbc
00000030: 1c3d 093d ce9c d3bc ace7 83bc 67b6 dc3c
00000040: 23fc e0bc c0df 323a 406d a3bc 1273 863c
00000050: 8e4b d3bc dc3b 3fbc c0e0 743c 4864 163c
00000060: 40d3 c53c 5220 71bc 901f ce3b 00b5 753c
00000070: 38b3 6f3c b670 e43c 48e6 a83c ceef 17bc
00000080: 183f 38bc 47af 9f3a 9be9 a8bc 37bf d43c
00000090: ba42 09bd f90b 11bd 797a a0bc 7c89 96bc
000000a0: e0d1 f0bc 98b2 d43c aa19 0fbd 9185 12bc
000000b0: 89bf f93c 279e 31bc 369b 09bd 8963 623c
000000c0: 69a4 3abc a38f 0a3d 425b e1bc 27e0 21bc
000000d0: 6ac0 f8bc 434a 99bc 9200 ab3c e88a aa3c
000000e0: a87c ca3b 85e4 ebbc 3a5c 023d 685b b43c
000000f0: 16bd cf3c e752 07bd cbbc cd3c 53cd 25b9
00000100: cea1 333d 5fef a33c 71c8 b83a ee6b 45bd
00000110: efef 33bd 95d9 abbd c95c babc af03 5bbc
00000120: 91a7 0cbd 03cd 8bbc ab5f 66bc 878f 88bd
00000130: 4297 05ba e357 ffbb 17db f2bc 5668 b73c
00000140: 9191 d53c 31c1 253c 2efa e5bc e425 2f3c
00000150: 68a1 ba3c 88f3 c13c 63fb b73c 8fed b3bc
00000160: b0f7 923c 8bfe 07bd 01d2 6b3c cded a8bc
00000170: 91e7 a23c c4b1 fc3c 019b a63d 26d5 1f3d
00000180: 8253 8b3a 587b 87bd e225 d7bd 1f43 ccbd
00000190: 867d f0bd 97ef 10be 435f 35bd 9d17 ebbb
000001a0: 6976 a2bc a5c9 2b3d c6d2 4d3d 6d58 5abb
000001b0: fe67 373c 3e87 85bc 43b7 b0bc 202f d0bc
000001c0: fd96 013d abd8 023d 644c 4cba 018c c73b
000001d0: 1be7 e1bc 61ed f3bc 2c5b 453b 9515 88bc
000001e0: e40e 7abc f6d5 943d 1871 c43d cb16 94bd
000001f0: 341d 53bd 0e20 cabd 00e7 5bbd 528e 9dbd
00000200: 302c 463d d483 c73d b08b 503d db84 b9bd
00000210: ec0b 90bc 7c8a 9bbb 8bec a23d 1375 7c3c
00000220: 2753 613d a9be 98bb d786 cf3c 2767 b2bc
00000230: d8ec 2e3c 0086 bc3a 100d 863c 72fa 033d
00000240: 7787 89bb 80f0 b7bd ea85 98bd c995 46bd
00000250: 6a3a 823c 565f 9a3c 6fb7 fcbc cd4c 853d
00000260: d469 bf3d c8cc 243d 8c6e 373d ac47 15bd
00000270: 82eb 813d f875 90bd a3e8 fbbd fad4 0bbd
00000280: 0b52 09bb 463e 893d f405 c53d 8ca6 ba3c
00000290: afc8 1fbc 164d 053d 091e 403c 6da2 213c
000002a0: 7959 033d 1538 03bd 6185 a83c 6df8 ef3c
000002b0: 8f11 2ebb c25c d9bd 9653 ffbd 7739 eabd
000002c0: 7e89 a7bc 8fb8 8abd 5fa9 9cbc c18a 203d
000002d0: 9e67 ec3d 5d03 493c 86ad 2f3d 1271 19be
000002e0: 955f d7bd c2ef debc b880 8dbd 97da bc3d
000002f0: ac8a 08be 07a7 d0bc d3d6 83bb 326f 4e3c
00000300: ea3a 1e3d b21d 3a3c 9301 8f3b 65b5 343c
00000310: dfe4 f53c dfe9 a4bc 063d 13bb ecd7 d63b
00000320: 2ba5 4bbc d546 9abd 5f1f 31be a4f1 07bd
00000330: 6b66 463c 44a2 60bd 8416 513c 0320 e7bd
00000340: 7e5a a1bd b7ff ee3d 9fbf 90bd c6d5 a7bd
00000350: ca15 903d f028 e1bd 015a d43d 642e 10bc
00000360: a16b b7bd f386 32bd 11f1 9f3d 1a63 76bc
00000370: 4be6 20bd 148d 373d bdbc e8bc db58 843c
00000380: b20f a2b9 6800 aebc 830c e1bc 117a 46bc
00000390: 9132 9a3d b54c 39bd f809 8bbd 7ef6 46bd
000003a0: 60f7 a3bd b7db 06be b0dd dfbc a8e7 b73d
000003b0: 52f0 d8bc cdb4 6d3d 1b94 47bd 572e 2ebd
000003c0: 81f2 ea3d cb86 68bc 1094 b3bd 7d4f 953c
000003d0: e2ea 553c 98f1 03bd e866 613d b388 1d3e
000003e0: 1f14 d03a ea7d c0bb 4846 9abb 38c0 05bb
000003f0: fc5b 053d 08b7 07bd 879d babc f63e 06bc
-0.021178886 0.015771821 -0.022030078 -0.017686142 0.011838157 0.0036965385 -0.008726627 0.016247295
-0.013792127 0.007535562 -0.030149521 -0.02303628 0.033505544 -0.025831606 -0.01610168 0.026942445
-0.027463978 0.00068235025 -0.019949555 0.016412292 -0.025792863 -0.011671986 0.014946163 0.009179182
0.024148583 -0.014717178 0.0062903836 0.014996767 0.014630131 0.027885776 0.02061762 -0.0092734825
-0.0112455115 0.0012182974 -0.020619204 0.025970085 -0.0335109 -0.03541181 -0.01958965 -0.018376105
-0.029396951 0.025964066 -0.034936585 -0.0089429775 0.030486839 -0.010840929 -0.033595286 0.013817676
-0.0113917375 0.03382839 -0.027509335 -0.009880102 -0.030365188 -0.018712169 0.020874295 0.020818189
0.006179411 -0.02879549 0.031826235 0.022016242 0.025358718 -0.033038046 0.025114438 -0.00015812115
0.04385548 0.020011602 0.0014097822 -0.048198633 -0.04392999 -0.0839111 -0.022749322 -0.013367577
-0.03433949 -0.01706553 -0.014060895 -0.06668001 -0.00050960865 -0.0077924593 -0.029645486 0.022388618
0.026070388 0.010116861 -0.028073397 0.010690186 0.022782043 0.023675695 0.022458738 -0.021963863
0.017940372 -0.033201735 0.014393331 -0.020621205 0.01988581 0.030846484 0.081350334 0.039021634
0.0010629746 -0.06615323 -0.105052724 -0.0997374 -0.11742692 -0.14153896 -0.0442803 -0.007174446
-0.019831853 0.04194035 0.050249837 -0.0033316866 0.011194227 -0.01629984 -0.021571761 -0.025413096
0.031638134 0.031944912 -0.00077933655 0.006089688 -0.02757602 -0.029776277 0.0030114157 -0.016611854
-0.015262339 0.07267372 0.095918834 -0.0723091 -0.051541522 -0.09869395 -0.053687096 -0.07693161
0.048381984 0.09741941 0.050914466 -0.09058543 -0.01758381 -0.0047467332 0.07955273 0.015408772
0.05501094 -0.0046614003 0.025332851 -0.021777702 0.010676585 0.0014383197 0.01636365 0.032221265
-0.004197057 -0.089814186 -0.07447417 -0.04848269 0.015896995 0.018844288 -0.030849187 0.06508789
0.09346357 0.040234357 0.04478316 -0.036445305 0.06343748 -0.07053751 -0.12300231 -0.034138657
-0.0020953442 0.06701331 0.09620276 0.022784494 -0.009752437 0.032544218 0.011725911 0.0098653855
0.03206775 -0.032035906 0.020571413 0.029293263 -0.0026560759 -0.10613395 -0.124671146 -0.11436742
-0.020451304 -0.06773483 -0.019123731 0.039194826 0.11543201 0.012268868 0.042890094 -0.14984539
-0.10516278 -0.027213935 -0.06909317 0.0922138 -0.13334149 -0.02547027 -0.004023412 0.012599753
0.038630404 0.011359619 0.0043642013 0.011029576 0.03001636 -0.02013105 -0.0022466793 0.0065565016
-0.012429516 -0.075330414 -0.17297123 -0.03318943 0.012109379 -0.05484225 0.012761716 -0.112854026
-0.07878588 0.116698675 -0.07067799 -0.08195071 0.07035406 -0.10994136 0.103687294 -0.008800123
-0.089560755 -0.04358573 0.07809652 -0.015038276 -0.039282124 0.044812277 -0.02841031 0.01615565
-0.00030910742 -0.021240428 -0.027471786 -0.012114064 0.07529176 -0.04523917 -0.06789011 -0.048574917
-0.080061674 -0.13169752 -0.027327389 0.08979732 -0.026481781 0.058033753 -0.04872523 -0.042524662
0.11472035 -0.014192293 -0.08768475 0.01822638 0.013056489 -0.032212824 0.05502978 0.15384178
0.0015875137 -0.005874385 -0.004708085 -0.002040876 0.032558426 -0.033133537 -0.022780193 -0.008193722

l2.bias f4 [64]
00000000: 7fb6 1bbd a0a2 f53d 1c70 1c3d 0e36 b03d
00000010: 42c8 9e3d aa17 d23c 7d8e dbbc f452 03bd
00000020: 6d25 15be 61d3 6b3e b0e6 263e 90dc 31be
00000030: 9ab4 d3bc 8ab3 3e3e 0f57 0d3e 1fca c1bc
00000040: be3d 08be 5844 2c3b 1132 a43e 3a9e 7d3c
00000050: 4166 ab3c d674 1e3e 85ff 23bd 2988 43bd
00000060: 449f f83d 8fb2 873d 3678 d63c b636 85bc
00000070: 1cda e93d 5e49 aa3d 4e19 6cbe 3d2b 743e
00000080: f0f5 7c3c 1fef b73d 23e2 1fbe 0d68 cb3a
00000090: 4b1b 25be 6293 87bd d589 34bd 356a aa3d
000000a0: ef9b 873d ae9c 2dbe 4cfd c6bc 2456 333e
000000b0: a840 103e e6ea 4e3d 87e5 383e aca1 053e
000000c0: 042e 00be d1e6 553e a55b 87bd f680 bcbc
000000d0: 51e3 d73d de01 113e d8ac 363d 1e67 c43d
000000e0: e0ea 03be 4861 8c3b a299 653e 47aa b2ba
000000f0: 2f89 223e f323 783e b237 acbc 1dde 163c
-0.03801584 0.11993909 0.038192853 0.0860406 0.0775304 0.02564605 -0.026801342 -0.032061532
-0.14565058 0.23029853 0.16298938 -0.17369294 -0.025842953 0.18623176 0.13802741 -0.02365595
-0.13304803 0.0026285853 0.32069448 0.015479619 0.020922782 0.15474257 -0.040038604 -0.047737274
0.121397525 0.06625854 0.026180368 -0.01626144 0.11418554 0.08314775 -0.23056528 0.23844619
0.015439495 0.089811556 -0.15613608 0.001551868 -0.16123693 -0.06619908 -0.04407676 0.08321039
0.06621539 -0.169543 -0.024290703 0.17513329 0.14087164 0.050516985 0.18056308 0.13049954
-0.12517554 0.2088883 -0.06609277 -0.023010712 0.10541404 0.14160869 0.04459843 0.095899805
-0.12882566 0.0042840578 0.22421888 -0.0013631069 0.15872644 0.24232464 -0.021022651 0.009208229

l2.weight f4 [64, 64]
00000000: 4c9e d33e b37e 4fbe 0131 77be dc99 ddbc
00000010: 829c 8dbc 2fda 8ebe c4ff 703e 12c4 efbc
00000020: 390e 463e 6400 7d3e 5b92 a03d c4cf 17be
00000030: cfb9 3dbc 0787 283e d599 623e c2f0 41be
00000040: 845d cdbc 08ae 693e cf30 5cbd 170a 1ebe
00000050: 1752 343d eb81 97be fe03 013e 0963 343e
00000060: e65f 77bd e902 4c3e 6cb8 36be c437 9fbe
00000070: bb0b 6cbe f8f8 5cbe b616 23bd 4766 923d
00000080: 72ef f23d 637a 6b3e 2d73 27be c60b d4bd
00000090: bc43 0c3e 07a6 bd3e 944e 4e3e 4490 fbbd
000000a0: 92c2 82bd d946 00bd e9c3 8fbc b9b8 ff3d
000000b0: ce3f f7bd d895 0e3e 1541 443e 2dfe 533e
000000c0: 51a9 4a3e 2f71 4f3d e1ac b33c 03dc 9d3d
000000d0: 92f3 eb3c a798 103e 9ede b73d 6019 7cbe
000000e0: e093 ecbd c63e 17bd 4634 793d 25e8 a93c
000000f0: bd65 8d3d d506 913d 35c0 61bd 34db 183e
00000100: 9e3d 00be c4b3 923e c8cf debd e944 b83d
00000110: 75a3 fdbc abc8 063e c5dc 76be 0e6e 91bd
00000120: aa58 44be c9f5 8dbd 97d6 0c3e 218e 9bbc
00000130: b104 50bd e2de cf3d aadb 8abd 8360 ba3d
00000140: 8358 f1bd ad54 31bc 1e02 e0bc 74c8 443e
00000150: 1a0d ed3d 6d49 bf3d 8531 56bd 6af7 b5bd
00000160: 22a3 043f 5b71 23be 2624 9c3d d212 3fbe
00000170: f7c2 12bd a6b4 ad3d 5041 acbb 8826 f33d
00000180: a29b f93c 79f8 743e 6f2a b63d 2cc3 9f3d
00000190: 94e8 0abe ce03 36bd 2ba2 fd3c 728a f6bc
000001a0: f564 cabd d25f 313d 6c6f a2bc aeb9 cf3d
000001b0: cca2 83bd a254 7ebd 6657 6fbe e444 8bbd
000001c0: 46c6 f2bd e333 dd3d d86e 563d 405f d23d
000001d0: 102d e8bc e51f 46bd 4f06 11be 2a65 993e
000001e0: 4c1f d53c 7e44 20be 8285 79be 4794 823e
000001f0: f437 d7bd 3b06 1e3d 3d80 5d3e f1ad 18bd
00000200: 21a2 8b3c 2da5 eb3c 44ac 92bd 999e c53d
00000210: 19d7 fc3d 667f 783d 11c5 09be 196f fbbd
00000220: c232 843d e66f e9bd 2b7e 093d 381e cbbc
00000230: 8b81 1f3d ae4c 553d b1dc 7c3d a099 8f3e
00000240: 900a 9dbd 2a52 b8bd e19b 0d3e ea60 223e
00000250: 9f41 e03d 54b2 3cbe 9dc1 1bbe ee2d 0bbe
00000260: f4f1 3b3e 6a84 ecbd fc3b 283e 51a5 f63c
00000270: 0627 0abc 9df7 68bd 6794 1bbe a1e0 88be
00000280: 97c9 833e 1773 2cbe 4cee 013e c5a9 35be
00000290: 2af7 023e f811 e23d e83d 94bd 65b4 05bd
000002a0: 0e73 ddbc 661e 9fba 4865 24be 308e 443c
000002b0: 4afc ddbd f95b f5bd c308 343e 21c3 dabc
000002c0: 689c 463c 5057 cfbd 2405 0dbe 2257 c5bc
000002d0: c4d8 84bd cf4b 62be c13a 01be ada0 db3e
000002e0: 272f 48be 1d5a 56be 95ab c0bc b14a adbc
000002f0: 13f6 0cbe 621f 093d 9699 75bc 41fd 7a3e
00000300: 9df0 26be 23db 523e a7a0 253d 5538 443e
00000310: a4ba e9bc fb50 7c3c 2fbb a0be bad9 8abd
00000320: 0458 a7be e68b d53d 911c d23d 5f80 0dbe
00000330: 5926 0cbe f998 82bc a902 16be f4a1 8f3e
00000340: ee9e 00be 1a9e d1bd 0f25 403e 9eab ea3d
00000350: f7c2 eebd 44c5 493e 0e03 12bd fcb0 febe
00000360: a57a b63e 275e c8be c939 0f3f 5ef2 413e
00000370: 3627 93bc 35e1 22bd 3a3e b7bd fe8a 8b3d
00000380: 5af8 d7bd 55c3 ea3e b616 063e 22c9 01be
00000390: f69c 37bc 8ed6 3bbe fc83 533e 5bf9 923d
000003a0: 11be 65bc c8ac 423e 09db 993d c256 a13d
000003b0: f515 34bd 6a6e b7bd b537 0d3e c363 85bd
000003c0: 9486 47be 384e 42bd 8d66 c4bd 4036 a1bd
000003d0: 0f6f 1f3b df5a 05bd 6523 f5bc e219 923d
000003e0: 18e3 e9bd 1e11 63be e916 bfbd e254 323d
000003f0: 5966 fdbc 23b6 563e 3b06 abbd e6c1 14bd
0.41331708 -0.20263176 -0.24139787 -0.027050905 -0.017286543 -0.27900836 0.23535067 -0.029268298
0.19341363 0.2470718 0.07840415 -0.1482535 -0.011579945 0.16457759 0.22128995 -0.18939498
-0.025069006 0.22820294 -0.053757485 -0.15433536 0.0440236 -0.29591307 0.12599179 0.17615904
-0.06039419 0.19922985 -0.17843789 -0.31097233 -0.2305135 -0.21579349 -0.03981658 0.07148414
0.11862077 0.22995906 -0.1635253 -0.10353808 0.13697714 0.3704073 0.20147163 -0.12283376
-0.063847676 -0.031317566 -0.017549472 0.12486405 -0.12072717 0.13924348 0.19165452 0.20702429
0.19791152 0.05064505 0.021933021 0.077079795 0.028802667 0.14120732 0.08978008 -0.24619055
-0.115516424 -0.0369251 0.060840867 0.020740578 0.06904171 0.07081381 -0.055114944 0.1492737
-0.12523505 0.28652775 -0.10879475 0.089975186 -0.030961731 0.13162486 -0.24107654 -0.071010694
-0.19174448 -0.069316454 0.13753735 -0.01898867 -0.050785724 0.101499334 -0.06780179 0.091004394
-0.117844604 -0.010823411 -0.02734476 0.19217092 0.115747645 0.09340177 -0.05229332 -0.08885081
0.5181142 -0.1596121 0.07624082 -0.18659523 -0.035830464 0.084817216 -0.0052568093 0.11872584
0.03046972 0.2392291 0.08894812 0.07800898 -0.13565284 -0.044437222 0.030961117 -0.030095313
-0.09882537 0.043304272 -0.01982852 0.101428375 -0.064275354 -0.06209243 -0.23373184 -0.06800249
-0.11854224 0.10800912 0.052351803 0.10272074 -0.0283418 -0.04837026 -0.14162563 0.29959995
0.0260159 -0.15651128 -0.24367335 0.25503752 -0.10508719 0.03858016 0.2163095 -0.03727526
0.017045083 0.028765285 -0.07161763 0.09649391 0.12345714 0.06066837 -0.13454081 -0.122770496
0.06454994 -0.11398296 0.03356759 -0.024794683 0.0389419 0.05207508 0.061733905 0.28046894
-0.0766803 -0.090000466 0.13828994 0.15857282 0.10950016 -0.18427402 -0.15210576 -0.1359174
0.18354017 -0.115486935 0.16429132 0.030108126 -0.0084321555 -0.056876767 -0.1519333 -0.26733878
0.25739738 -0.16840778 0.1268856 -0.17740543 0.12789598 0.110385835 -0.0723837 -0.03264274
-0.027032401 -0.0012139797 -0.1605426 0.011996791 -0.10839136 -0.11980433 0.17581467 -0.026704373
0.012122251 -0.101240754 -0.13771492 -0.0240894 -0.06486657 -0.22099231 -0.12620069 0.42896023
-0.19549237 -0.20932813 -0.023519317 -0.02115378 -0.13765745 0.033477195 -0.014990231 0.24510671
-0.16302724 0.20591407 0.040436413 0.19162114 -0.02853138 0.015400167 -0.3139281 -0.06779809
-0.32684338 0.10427074 0.10259355 -0.13818501 -0.13686503 -0.015942084 -0.14649452 0.28053248
-0.12560627 -0.102352336 0.18764137 0.11458515 -0.1165828 0.19704157 -0.035647444 -0.49744403
0.35640445 -0.39134333 0.5594755 0.18940112 -0.017963033 -0.039765555 -0.08947416 0.0681362
-0.10545416 0.45852152 0.13094601 -0.12674382 -0.011206856 -0.18343565 0.20655817 0.07176467
-0.014022366 0.19011223 0.07512481 0.07877876 -0.043966252 -0.08956607 0.13790782 -0.06513169
-0.19484931 -0.047437876 -0.095898725 -0.078716755 0.002432767 -0.032557365 -0.029924104 0.07133843
-0.11420268 -0.22174498 -0.09330542 0.04353798 -0.030932592 0.20967917 -0.08350798 -0.03631773

l3.bias f4 [10]
00000000: ff95 55be efaa 5a3e fc96 bebd 385c 31be
00000010: cb70 a43e 3629 023e 9cc7 e5bd 0451 853d
00000020: dc0f 403e 4a07 5f3d
-0.20858 0.21354268 -0.09306142 -0.17320335 0.32117304 0.12711033 -0.11219713 0.06509593
0.1875605 0.05445031

l3.weight f4 [10, 64]
00000000: c6bc 1cbf 2d7f 36bf c159 173c 8b8c 32bf
00000010: 85b3 7abe f918 d93c 6835 793e d685 753e
00000020: 528c 7c3e d93f ea3e 9700 48be a0a2 c43e
00000030: 7a99 60be 8b82 25bf 1b83 cabe d71c 91bb
00000040: d92d 283e 680d 54be 9c9f ac3d c841 ab3e
00000050: 7950 9ebe dd56 abbe 8744 76bf 343a 02be
00000060: d861 61bf 3bba 57bc 293f 52be 50f5 073e
00000070: 4155 1a3f b359 993e 37c6 2a3f 2f37 b4be
00000080: c6ff d5be 65a0 2abe 57a7 55bd 9466 083f
00000090: 94d7 7bbd 6217 94be 8d97 9dbd 16c5 b03e
000000a0: 19b1 c73e d024 5e3f 730e 813d acc5 b63e
000000b0: b638 a53e fe60 033f e01c c03e 4427 16bf
000000c0: 89fb bb3e b921 8fbe 4a55 09bf ed59 24bf
000000d0: b1b6 263f 6b7a 0cbe fe07 b73e a27a 8b3d
000000e0: 9dc8 a73e 25ef ec3e ee0a 1c3d 4df6 9cbe
000000f0: 8b85 723c 0d97 d2be f6f4 9bbd 79ba 393f
00000100: fcdd ff3b acf3 b83e 8bd8 8b3e d5f4 d3bd
00000110: 3340 003e b9b6 253f 8e0a ccbe b7c7 293d
00000120: 698b a23e 5bb0 fabe 7165 47bd d696 d73e
00000130: a558 823e 933c 30bf 2844 043f dac2 143f
00000140: 2aaf 243b 808c 283f 478e 17bf a13b 6d3e
00000150: e28a b63e 4fad 053f d92f a3bd fc7e bd3e
00000160: 41a7 ab3d 5f32 2e3e e22b 15bf 27ee 813e
00000170: aa6c 1fbf fbf7 523f f0b1 283e 4d00 8d3e
00000180: 2940 e43e d216 3dbe 6863 5e3e a7b0 5cbe
00000190: a694 103e 4dd0 0b3f 2c8a f8bd c8f3 7fbf
000001a0: e6da 24be 8b17 4abe a628 933e c5eb 0abd
000001b0: ec97 b7be 12c5 23bf e3f9 37bd f1b8 023f
000001c0: 8f35 b0be 62ca 953e 4e3a e93e d3af d63e
000001d0: 0d54 85be 9301 64be b1dc 15bf af92 b23e
000001e0: 1075 ec3e f976 17bf 78dd d1be a36f cbbc
000001f0: 1ffb 4ebf 3ab4 2abf eb65 0ebf 77d5 893e
00000200: a653 043f 8b2e 9dbe 8ab6 d2be 2a48 59bc
00000210: 832b 1fbd e8fe 63bf 91ac 033f f3fe a23e
00000220: be9e ea3e 8046 36bf 89ec c93e d8ab 2ebf
00000230: 1b1c 583d ace7 74be 9213 b5be 6b9b 34bf
00000240: 4d64 a93d 184f 1f3f 446b 96be 6ceb 0a3e
00000250: cc4b a23e 47fc 0abf 9c1d 0c3f 70c4 833d
00000260: 2bc1 7fbe bb67 a03e f3f2 24bf a460 b23d
00000270: ea9d d93e 8e2d 28be 0904 ca3e bee6 be3e
00000280: 7381 673e 5b72 f63e b9fc babe 8d8b 193e
00000290: f56c 753e 42c2 123f 3add 3c3f 0145 20bf
000002a0: 92a3 433e bca2 61be 098a 4abf 9b35 53bd
000002b0: af3d 86be e9df 183f 7bb3 c23e 6d54 823e
000002c0: ff01 a43e 9146 7abf f584 b93e 35ac 6d3e
000002d0: 4eac 113e bb71 a23e 373d bb3e 0878 c53e
000002e0: 0088 58bf 5bb4 cb3d f87c 993e 15f6 e6be
000002f0: be0a c33e f67e 8bbf a514 07bf 9991 f53e
00000300: 4a03 7a3e 990f 253e 4e24 1c3f 49ad 063f
00000310: bf8a ad3e 37c7 b5be 2c9b 4fbf d4b5 adbe
00000320: 6cdb b4be f746 e5be 8f67 1d3f 92e5 efbe
00000330: 5ed6 06bf ed69 f13e 3f72 f5be 5ca0 213f
00000340: 7d49 193d b4dd e3be 4b6e 5a3e b2b7 1e3e
00000350: 1817 a63e 1b7d 883d 75ae b73e 1be1 47be
00000360: 1bd3 cf3e d351 06bf 1580 4a3f bebf f1be
00000370: ac28 88be 10c5 cebe eaf0 323d d5ae 24bf
00000380: 35e9 fa3e 7532 db3e 41a3 1d3e e79d 13bf
00000390: d5b5 17bf ba01 133f aa6d ec3e ffc6 b2be
000003a0: 7aaf a73d 370a 4e3c fbe1 80be ad4f f13e
000003b0: 2bde b13e d62b f23e 37a4 183f 9388 65bd
000003c0: 28ae 933e d909 38bf 2adc 9fbe bf68 983e
000003d0: e3d7 1d3e 023b 36bf 4be2 383e 52be 8c3e
000003e0: c171 28be f6b8 5abe e0a2 53be c512 a7be
000003f0: 67ed 04bf 9fa3 153f abec 0d3e b00f 083f
-0.61225545 -0.71287805 0.009237708 -0.697457 -0.24482544 0.026501166 0.24336779 0.23976836
0.24662903 0.45751837 -0.19531475 0.38405323 -0.21933547 -0.6465232 -0.3955315 -0.004428487
0.1642374 -0.20708239 0.084288806 0.33448625 -0.3092077 -0.3346471 -0.96198314 -0.12717515
-0.8803992 -0.013166959 -0.20531906 0.13277173 0.6028634 0.29951248 0.667087 -0.35198352
-0.41796702 -0.16662748 -0.05216154 0.5328152 -0.06148489 -0.2892409 -0.07694922 0.34525365
0.39002302 0.8677492 0.06301584 0.35697687 0.3226983 0.51319873 0.3752203 -0.58653665
0.36715344 -0.27955416 -0.53645766 -0.64199716 0.65122515 -0.13718574 0.35748285 0.068105
0.32770243 0.46276203 0.03809636 -0.30656663 0.014802347 -0.41130868 -0.07615082 0.7255016
0.007808445 0.36123407 0.27313647 -0.103494324 0.1252449 0.6473194 -0.39851803 0.04145023
0.31746987 -0.48962674 -0.048680726 0.42107266 0.25458255 -0.6884243 0.516665 0.5810982
0.002512882 0.65839386 -0.59201473 0.23167278 0.35652834 0.5221757 -0.079681106 0.37010944
0.083815105 0.17011403 -0.58270085 0.25377008 -0.62275183 0.8240964 0.16474128 0.27539292
0.445802 -0.18465737 0.21717608 -0.21551763 0.14119205 0.54614717 -0.12135729 -0.99981356
-0.16099128 -0.19735543 0.2874195 -0.033916254 -0.35858095 -0.6397258 -0.044916045 0.5106345
-0.34415862 0.29255968 0.45552295 0.41931018 -0.26040688 -0.22266226 -0.58539873 0.34877536
0.46183062 -0.5916591 -0.4098928 -0.024833506 -0.8085193 -0.66681254 -0.55624264 0.26920673
0.5169014 -0.30699572 -0.4115489 -0.013261834 -0.038859855 -0.8906083 0.5143519 0.31835136
0.45824236 -0.71201324 0.39438275 -0.6823096 0.05276118 -0.23916501 -0.35366493 -0.7054965
0.08271084 0.6223006 -0.29378712 0.13566369 0.31698453 -0.54291195 0.5473268 0.06433952
-0.24976031 0.3132914 -0.6443321 0.08709839 0.4250329 -0.16423628 0.39456204 0.37285417
0.22607975 0.4813412 -0.36520937 0.1499464 0.23967345 0.57327664 0.73775065 -0.6260529
0.19105366 -0.22034734 -0.79116875 -0.051564794 -0.26218936 0.5971666 0.38027558 0.25455037
0.32032773 -0.97763926 0.3623425 0.23210223 0.14225885 0.31727394 0.3657014 0.3856814
-0.8458252 0.099465095 0.29978156 -0.4510962 0.38094133 -1.089812 -0.52765876 0.47962645
0.24415317 0.16119231 0.60992897 0.5260816 0.33894917 -0.3550355 -0.8109615 -0.33927786
-0.35323656 -0.44780704 0.6148614 -0.46854836 -0.5267085 0.47151127 -0.47938725 0.63135314
0.0374236 -0.44505084 0.21331136 0.15499762 0.32439494 0.06664487 0.35875288 -0.19519465
0.40590748 -0.52468604 0.7910169 -0.472166 -0.2659353 -0.40384722 0.043686785 -0.6432927
0.49006048 0.42811933 0.15394308 -0.57662815 -0.5926183 0.5742451 0.46177417 -0.34917447
0.081877664 0.012575678 -0.2517241 0.471311 0.34739813 0.4729907 0.5962557 -0.05603845
0.28843808 -0.71890026 -0.3122266 0.29767415 0.15414385 -0.7118379 0.18055074 0.27488953
-0.16449644 -0.2135962 -0.206676 -0.32631508 -0.5192475 0.5845279 0.13859813 0.5314894
