Assets/Data/Sigmoig.onnx (onnx, 220787 bytes, 6 tensors)

l1.bias f4 [64]
0	0xbd3590d1	-0.04432756
1	0xbd2acf92	-0.04170186
2	0xbe3e7c0f	-0.18602012
3	0x3d9409e4	0.07228449
4	0xbe9b37ba	-0.30315953
5	0xbe5fab21	-0.21842624
6	0xbdb90ae8	-0.09035283
7	0xbe5b2cc1	-0.21403791
8	0xbe6a2c0b	-0.22868364
9	0xbe955a8e	-0.2917065
10	0xbe5594d5	-0.20857556
11	0xbe0beaf6	-0.13663849
12	0xbd17dfc1	-0.037078623
13	0x3db49939	0.088182874
14	0xbcccf964	-0.025021262
15	0xbda85ba9	-0.08220608
16	0xbe0b2f43	-0.13592248
17	0xbe41b39e	-0.18916175
18	0xbe9b7061	-0.30359176
19	0xbdfa3c79	-0.122185655
20	0x3cddfdf4	0.027098633
21	0x3dfef24b	0.124485575
22	0xbea3ca04	-0.31990063
23	0x3d8170f8	0.06320375
24	0x3b630122	0.0034638126
25	0xbe292598	-0.16518247
26	0xbe8a8f08	-0.2706225
27	0xbd9720ce	-0.07379304
28	0x3e284336	0.16431889
29	0x3b9f12c4	0.004854532
30	0xbe6a6494	-0.2288993
31	0xbcf979bf	-0.03045356
32	0xbe764cfc	-0.24052805
33	0xbb9f82bd	-0.00486788
34	0xbee32800	-0.44366455
35	0xbda74cfa	-0.08168979
36	0x3db9482d	0.090469696
37	0xbd855e55	-0.06512133
38	0xbe76c711	-0.24099375
39	0xbdd95d75	-0.10613529
40	0xbe137460	-0.14399862
41	0xbd83f01c	-0.064422816
42	0xbee8c964	-0.4546615
43	0xbe74d315	-0.23908646
44	0xbe89530b	-0.2682117
45	0x3df4cd28	0.11953193
46	0xbd99a739	-0.07502598
47	0xbc0352a7	-0.008015311
48	0x3d6f0640	0.05835557
49	0xbf020391	-0.5078669
50	0xbd6a2ba7	-0.057170536
51	0xbe078e6d	-0.13237925
52	0xbd5cbf9a	-0.053893663
53	0xbdf184a3	-0.117928766
54	0x3c003fa5	0.007827674
55	0xbdf30d8e	-0.1186782
56	0xbdc072a8	-0.09396869
57	0xbc9f6f36	-0.01946221
58	0xbe12fb96	-0.14353785
59	0x3e0d95d6	0.13826689
60	0xbdc7c58a	-0.097544745
61	0xbd434bd3	-0.047679733
62	0xbc03428c	-0.0080114715
63	0xbdbb1ea0	-0.09136701

l1.weight f4 [64, 784]
0	0x3ce63ab2	0.02810416
1	0xbbe4d25c	-0.0069830846
2	0xbc5c42ae	-0.013443632
3	0x3ceb4132	0.028717611
4	0x3c2219dc	0.009893861
5	0x3ba93330	0.0051635727
6	0x3cc8d4b8	0.024515495
7	0x3c4fd41c	0.012684848
8	0xbcf63948	-0.03005661
9	0x3ca037ae	0.0195578
10	0x3cb853e6	0.022500943
11	0x3cba486e	0.022739615
12	0x3bcc08a9	0.0062266183
13	0x3bf6e3a8	0.007534463
14	0xba450bf8	-0.0007516737
15	0xbc92af38	-0.017905816
16	0x3d06e037	0.03292867
17	0xbceb7713	-0.028743302
18	0xbac5b9c0	-0.0015085265
19	0xbc9b7cba	-0.018980373
20	0xbcfc9fb3	-0.03083787
21	0xbc0e2532	-0.00867586
22	0x3d09d7f3	0.03365321
23	0xbcdbe81a	-0.026844073
24	0xbca1a5dc	-0.019732408
25	0x3c74461c	0.0149092935
26	0xbcb397a8	-0.021922901
27	0x3ce4e94e	0.02794328
28	0x3c863574	0.01638291
29	0xbce79248	-0.028267995
30	0xbd08bb57	-0.033381786
31	0x3c1e61a0	0.00966683
32	0x3d0337f2	0.032035775
33	0xbae7fb29	-0.0017698753
34	0x3b84da21	0.0040543233
35	0x3cd69f6e	0.026199069
36	0x3c85ec88	0.016348138
37	0xbd055ab4	-0.032557204
38	0x3ae9601e	0.0017805134
39	0x3ba02404	0.004887106
40	0x3cbaeb8c	0.022817396
41	0x3ce6296b	0.028095922
42	0x3ccc840e	0.024965312
43	0xbcaf16a5	-0.021373102
44	0x3b29dde7	0.0025919618
45	0x3ccec5ad	0.025240744
46	0xbb1cc317	-0.0023919994
47	0x3c8f23f0	0.017473191
48	0xbd05af38	-0.032637805
49	0xbc6e2790	-0.0145358
50	0x3cefc46b	0.029268464
51	0x3cf8d2cf	0.030373959
52	0x3cbfc23a	0.023408044
53	0xbd0caa3b	-0.034342032
54	0xbb90c3e8	-0.004417885
55	0x3c247428	0.010037459
56	0x3bdeabe0	0.0067953914
57	0x3c8c496c	0.017124854
58	0xbcb37201	-0.021904947
59	0xbc9e5ef4	-0.019332387
60	0xbcf029ef	-0.02931687
61	0xbc61cdda	-0.013781989
62	0x3a04ba94	0.00050632027
63	0xbce30898	-0.027714059
64	0x3ca0dfec	0.019638024
65	0xbcb6e2a6	-0.022324871
66	0xbb91f7e8	-0.0044546016
67	0xbc1f9411	-0.009739892
68	0x3ca6d07e	0.020363089
69	0x3ad4af80	0.001622662
70	0x3bdb7b84	0.006698074
71	0xbccfc351	-0.025361689
72	0xbce61316	-0.028085273
73	0x3cded022	0.027198855
74	0xbd17a348	-0.03702095
75	0x3cb34f05	0.021888265
76	0xbd07a032	-0.03311176
77	0xbbaed877	-0.005335863
78	0xbd0322bf	-0.03201556
79	0xbcaba537	-0.020952804
80	0xbb0fa7ad	-0.002192001
81	0x3c54e27a	0.012993449
82	0xbb2e3b80	-0.0026585758
83	0xbbcf4e24	-0.0063264538
84	0x3cbd17da	0.023082662
85	0x3ccbb036	0.024864297
86	0x3cf1f968	0.029537871
87	0xbc6aa8fc	-0.014322516
88	0xbcc34045	-0.023834357
89	0x3d0bec7a	0.03416107
90	0x3c44249a	0.011971617
91	0x3cd9a9f5	0.0265703
92	0xbcc36264	-0.023850627
93	0xbcc26763	-0.02373094
94	0xbd186709	-0.037207637
95	0x3bfdf7f3	0.007750505
96	0x3b1d90f6	0.0024042702
97	0x3d53d906	0.05172064
98	0x3d86cdb6	0.06582205
99	0x3d4c490f	0.04987436
100	0x3d35b2df	0.044360038
101	0x39dfe5ff	0.00042705235
102	0x3cde00b5	0.027099947
103	0xbd000126	-0.031251095
104	0x3c5dc4b8	0.013535671
105	0xbce52001	-0.027969362
106	0xbc1d7c4f	-0.009612157
107	0x3bba41e1	0.005684123
108	0xbcb91e0a	-0.022597332
109	0xbca6c244	-0.020356305
110	0x3c0aeff1	0.008480058
111	0x3c81a59c	0.015826039
112	0x3d06b577	0.032887902
113	0x3d0b0fb3	0.03395052
114	0xbd0b689d	-0.034035314
115	0xbc94babd	-0.01815545
116	0xbc84efa3	-0.016227549
117	0x3d1a310a	0.037644424
118	0x3d24d520	0.040242314
119	0xbc9d4c4c	-0.01920142
120	0x3cbf9e45	0.023390898
121	0x3d102247	0.03518894
122	0x3c6ccf79	0.014453762
123	0x3d2f6296	0.04281863
124	0x3d79d3f3	0.060993146
125	0x3d961c69	0.073296376
126	0x3d880634	0.06641808
127	0x3ddbf51f	0.107401125
128	0x3d30f6d4	0.043204144
129	0x3caba9d2	0.020955
130	0x3b2bd809	0.0026221296
131	0xba88f504	-0.0010448997
132	0xbcafe07c	-0.021469347
133	0xbd1ada0d	-0.037805606
134	0x3c2cc956	0.010546049
135	0xbc1ce52f	-0.009576126
136	0xbccc48a1	-0.024936976
137	0x3d213584	0.039357677
138	0x3cf4554f	0.029825835
139	0x3c303059	0.0107537145
140	0xbcd5dae5	-0.026105354
141	0xbcf21ace	-0.029553797
142	0xbc8da957	-0.017292662
143	0x3c0b59e6	0.00850532
144	0xbbde63cf	-0.0067868005
145	0x3b3b903c	0.0028619906
146	0x3a42859b	0.00074204215
147	0xbc4fd4de	-0.012685029
148	0xbd651925	-0.055932183
149	0xbce9c97c	-0.028538458
150	0xbd215b41	-0.039393667
151	0xbd898448	-0.06714684
152	0xbda7b626	-0.08189039
153	0xbd203e76	-0.039122067
154	0xbd0c6792	-0.03427846
155	0xbd0b11f1	-0.033952657
156	0x3d62360f	0.055227336
157	0x3d2ecda4	0.042676583
158	0x3e046687	0.12929736
159	0x3ddf77ee	0.10911547
160	0x3dd6258b	0.104563795
161	0x3db4c09b	0.08825799
162	0x3c751bfb	0.014960284
163	0xbccaa107	-0.024734987
164	0xbc8473b3	-0.016168451
165	0x3b4de996	0.0031419746
166	0xbcfc1138	-0.03076993
167	0x3d0c1cfa	0.03420732
168	0x3c414724	0.011796746
169	0x3c894997	0.016758723
170	0xbcc8cece	-0.024512675
171	0xbca86508	-0.020555988
172	0xbc849157	-0.016182585
173	0x3c3c8e91	0.0115086
174	0xbbb87fde	-0.0056304773
175	0xbd86e35f	-0.06586336
176	0xbd818726	-0.06324606
177	0xbd9d4d85	-0.07680801
178	0xbde1c795	-0.110243954
179	0xbdd87697	-0.10569494
180	0xbdd1a7ff	-0.10237121
181	0xbd9a827d	-0.0754442
182	0xbe07bea7	-0.13256322
183	0xbda11602	-0.07865526
184	0x3cb16ab9	0.021657335
185	0x3d7ea1c8	0.062166005
186	0x3e443d7d	0.19164081
187	0x3e29c62e	0.16579506
188	0x3e302c6f	0.1720445
189	0x3dd3f712	0.10349859
190	0x3dc752d9	0.09732599
191	0x3bacfda4	0.0052792598
192	0x3ce35db6	0.027754646
193	0x3c593783	0.013257864
194	0xba02a439	-0.00049835775
195	0x3d0ef6a8	0.0349032
196	0xbc92b0f2	-0.01790664
197	0x3c37e5f5	0.01122426
198	0x3ce5e9e7	0.028065635
199	0x3c04a66b	0.008096318
200	0x3d245f32	0.040129848
201	0x3ce9c8f1	0.0285382
202	0xbd986f03	-0.07443049
203	0xbd433fcb	-0.04766826
204	0xbd4e5cd7	-0.050381508
205	0xbdb77546	-0.08957915
206	0xbd5860d3	-0.052826714
207	0xbdeecb61	-0.11659885
208	0xbd788fb1	-0.06068391
209	0xbdda8991	-0.1067077
210	0xbd878783	-0.06617644
211	0xbce3fdd9	-0.027831005
212	0x3d8b7e4e	0.068112
213	0x3dd7e3f8	0.105415285
214	0x3e1d714a	0.15375248
215	0x3e0d6a23	0.13810019
216	0x3e4b5fb5	0.19860728
217	0x3dfe390e	0.12413226
218	0x3d8aca70	0.06776893
219	0x3da06a37	0.07832759
220	0x3d81739f	0.06320881
221	0x3c95644b	0.0182363
222	0x3d2c45b1	0.04205865
223	0xbc957c61	-0.018247785
224	0x3d0cccf9	0.034375165
225	0x39af4fc7	0.0003343804
226	0x3b039b36	0.0020081527
227	0x3ca05979	0.019573914
228	0x3cd9990b	0.026562234
229	0xbd2322ab	-0.039827984
230	0xbd01264e	-0.03153067
231	0xbda9f29c	-0.08298227
232	0xbd5d452f	-0.054021057
233	0xbd2f5f48	-0.042815477
234	0xbc71d510	-0.014760271
235	0x3b0a6539	0.0021117462
236	0x3ce402dc	0.027833395
237	0x3d8b1068	0.067902386
238	0x3d9ae03f	0.07562303
239	0x3d535c48	0.051601678
240	0x3e095293	0.13410406
241	0x3e20b5cd	0.15694351
242	0x3e3b336e	0.18281338
243	0x3e092129	0.13391556
244	0x3e563955	0.20920308
245	0x3e3d08e3	0.18460421
246	0x3e40106f	0.18756269
247	0x3dff9fe9	0.12481672
248	0x3e0f61a0	0.14002085
249	0x3d184bc9	0.03718165
250	0x3c4cd2cc	0.01250143
251	0xbc8bd2ef	-0.017068354
252	0x3c81aa56	0.015828293
253	0xbba7ae2e	-0.0051171994
254	0xbbc35ea1	-0.0059622084
255	0x3c1095a1	0.008824737

l2.bias f4 [64]
0	0xbe38a0dc	-0.18030113
1	0xbe167290	-0.1469214
2	0xbccb404b	-0.02481093
3	0xbe233253	-0.15937166
4	0xbe81546f	-0.2525973
5	0xbe7c4160	-0.24634314
6	0xbe3d022a	-0.18457857
7	0xbcc9adc6	-0.024618994
8	0xbde0f786	-0.10984711
9	0xbe380f67	-0.17974626
10	0xbd8da7d0	-0.06916773
11	0xbe552c59	-0.20817699
12	0xbe489f3b	-0.19591992
13	0xbe984cb9	-0.29746035
14	0xbe865aef	-0.26241252
15	0xbcf90fff	-0.030403135
16	0xbd61757c	-0.055043682
17	0xbe16cc9f	-0.14726494
18	0xbd800a49	-0.06251962
19	0xbe351295	-0.1768287
20	0xbe26706b	-0.16253822
21	0xbde7656b	-0.11298641
22	0xbd9686c1	-0.07349921
23	0xbe5818a0	-0.21103144
24	0xbdaa0c90	-0.08303177
25	0xbd7c0f04	-0.061537758
26	0xbe0318c8	-0.12802422
27	0xbdc91056	-0.09817569
28	0xbe6403b5	-0.22267039
29	0xbd8ed9bf	-0.069751255
30	0xbe686679	-0.2269534
31	0xbe2a3021	-0.16619922
32	0xbdfbc37f	-0.12293147
33	0xbda3fe75	-0.08007518
34	0xbe240830	-0.16018748
35	0xbe10c6f5	-0.14138396
36	0xbe41b44e	-0.18916437
37	0xbe12e185	-0.14343841
38	0xbc253867	-0.010084248
39	0xbe024db9	-0.12724961
40	0xbd846eba	-0.06466432
41	0xbe060609	-0.1308824
42	0xbd03c5c8	-0.03217104
43	0xbe489d53	-0.19591264
44	0xbd787968	-0.060662657
45	0xbd3d9ab5	-0.04629012
46	0xbe122dc1	-0.14275266
47	0xbe437008	-0.19085705
48	0xbe925aa0	-0.28584766
49	0xbdcf549b	-0.10123559
50	0xbe167a7c	-0.14695162
51	0xbd57b80b	-0.05266575
52	0xbdbcb7c6	-0.092147395
53	0xbe8d3d1c	-0.27585685
54	0xbe1ef6fe	-0.15523908
55	0xbd437de5	-0.047727484
56	0xbe6b6697	-0.22988354
57	0xbe804e29	-0.2505963
58	0xbe92e9a2	-0.28693873
59	0xbe216493	-0.15761022
60	0xbe2e8f25	-0.17046793
61	0xbe458674	-0.19289571
62	0xbdb33d02	-0.08751871
63	0xbe20e054	-0.15710574

l2.weight f4 [64, 64]
0	0x3e333672	0.17501238
1	0xbe482ab3	-0.19547538
2	0x3c88391d	0.016628796
3	0x3e04cba5	0.12968309
4	0xbe208d3f	-0.15678881
5	0xbe9e03aa	-0.3086217
6	0x3cbc9482	0.023020033
7	0xbe20f94d	-0.157201
8	0x3e619fa1	0.2203355
9	0x3e9342e3	0.28761968
10	0xbd95120f	-0.07278835
11	0xbdc64cdf	-0.09682631
12	0xbe01de33	-0.12682419
13	0xbe5f316a	-0.21796194
14	0xbdb793ae	-0.089637145
15	0x3c98e09c	0.01866179
16	0x3b38df36	0.0028209216
17	0xbe95c223	-0.29249677
18	0xbe088f73	-0.13335972
19	0xbc20490a	-0.009783039
20	0x3decd3ce	0.11563836
21	0x3d932b07	0.07185941
22	0xbe7dafaa	-0.24774042
23	0xbc62ba56	-0.013838371
24	0xbe322e59	-0.17400493
25	0xbdc327b8	-0.0952906
26	0xbe415292	-0.18879154
27	0xbd8105fd	-0.0629997
28	0xbd90291b	-0.0703909
29	0x3d671bd2	0.056423016
30	0xbe3e5350	-0.18586469
31	0xbda0b0b8	-0.078462064
32	0xbd247d73	-0.0401587
33	0xbe2458b9	-0.1604947
34	0x3dbf1ae8	0.09331304
35	0xbe05e794	-0.13076621
36	0xbe45a87c	-0.19302553
37	0xbe922e90	-0.2855115
38	0xbe135576	-0.1438807
39	0xbea3ff0e	-0.3203053
40	0x3d135a14	0.035974577
41	0x3cdd692f	0.027027695
42	0xbd1b4dc6	-0.037915967
43	0x3d850f3d	0.06497047
44	0x3e02210e	0.12707922
45	0xbe3c1b23	-0.18369727
46	0xbcf05e99	-0.029341983
47	0xbd30473b	-0.04303668
48	0x3dd0898e	0.101824865
49	0x3e141110	0.14459634
50	0xbd423006	-0.04740908
51	0xbe7d9e79	-0.24767484
52	0xbd2d52d2	-0.04231531
53	0xbe85c4f9	-0.2612684
54	0xbd87abbf	-0.06624555
55	0xbe147026	-0.14495906
56	0x3e8a25eb	0.26982054
57	0xbdb5bc4f	-0.08873808
58	0xbdc93c05	-0.09825901
59	0x3e8fae35	0.28062597
60	0xbeb47327	-0.35244104
61	0xbe08d817	-0.13363682
62	0xbd498ee7	-0.049208548
63	0xbe12238a	-0.1427137
64	0xbeb3ed97	-0.35142204
65	0x3ea5980d	0.32342568
66	0xbe1e6de4	-0.15471607
67	0xbeab5f1b	-0.33470997
68	0x3d331ca0	0.04372847
69	0xbcb6792a	-0.022274572
70	0xbd64debf	-0.05587649
71	0x3d1a395d	0.037652362
72	0xbe444dac	-0.19170254
73	0xbe156a21	-0.14591266
74	0xbd02a155	-0.03189214
75	0x3d85f5b3	0.06541004
76	0xbd63a52b	-0.05557744
77	0x3ec9aa98	0.39387965
78	0x3e6b1734	0.2295807
79	0x3d3063e4	0.043064013
80	0x3d3169f8	0.04331395
81	0x3e04785a	0.12936535
82	0xbe07629e	-0.13221213
83	0x3e9b3bf9	0.30319193
84	0xbdfe866b	-0.12427982
85	0xbec1c729	-0.3784726
86	0xbde1917b	-0.11014076
87	0x3cdb790c	0.026791118
88	0x3df4145f	0.11917948
89	0xbe6af7e2	-0.22946122
90	0xbe2a767a	-0.16646758
91	0x3e859f30	0.26098013
92	0xbe8ebda7	-0.27879068
93	0x3b9c565e	0.004771038
94	0x3db13797	0.08653181
95	0x3e060568	0.13088
96	0xbd44c2c9	-0.048037324
97	0xbe0bc3db	-0.13648932
98	0xbb711961	-0.0036788809
99	0xbdfe580d	-0.12419138
100	0xbe9661db	-0.29371533
101	0x3e1459d7	0.14487396
102	0xbcf63e90	-0.030059129
103	0xbe211f15	-0.15734513
104	0xbd827048	-0.06369072
105	0xbe5053ad	-0.2034442
106	0xbf123e75	-0.5712655
107	0xbe6d10e4	-0.23150975
108	0xbe7bec7a	-0.24601927
109	0xbde52fce	-0.11190759
110	0xbda9f1be	-0.08298062
111	0x3e1036bb	0.14083378
112	0xbe7536b1	-0.23946644
113	0xbe5a4b81	-0.21317865
114	0xbc710031	-0.014709518
115	0x3c8950df	0.016762195
116	0xbe5fa7c5	-0.21841343
117	0x3d30e7c7	0.04318979
118	0xbdc4841c	-0.0959551
119	0x3dcdeb89	0.100546904
120	0xbe9a9fe8	-0.30200124
121	0x3d4ee398	0.05051002
122	0xbea597a1	-0.32342246
123	0xbe69e5c6	-0.22841558
124	0x3de5c438	0.112190664
125	0xbe1bbf21	-0.15209629
126	0x3e7dd2e5	0.24787481
127	0x3dcdd224	0.10049847
128	0x3c5bc151	0.013412789
129	0xbe617713	-0.2201808
130	0x3ea44e59	0.32091025
131	0xbe02eaae	-0.12784836
132	0xbdbb865c	-0.091564864
133	0xbe6d0090	-0.23144746
134	0xbe8a21cc	-0.2697891
135	0xbd126d99	-0.03574905
136	0x3d5aa67d	0.05338143
137	0x3de48402	0.11157991
138	0x3eb2f19e	0.34949964
139	0xbebd858f	-0.3701596
140	0x3e2ba048	0.16760361
141	0xbe9fdc8c	-0.3122295
142	0xbdee8c58	-0.11647862
143	0xbe95cc95	-0.29257646
144	0xbe0f1984	-0.13974577
145	0xbc993aff	-0.01870489
146	0x3defa207	0.11700826
147	0xbe0f64f9	-0.14003362
148	0xbde00bea	-0.109397724
149	0x3de325a9	0.110911675
150	0x3d8f89c4	0.070086986
151	0xbe25160e	-0.16121694
152	0xbe4269d4	-0.18985683
153	0x3dc1b94e	0.09459172
154	0x3dd20d9d	0.10256503
155	0xbe1d6a16	-0.153725
156	0xbe514cf7	-0.20439516
157	0x3d4e21cd	0.050325204
158	0xbe6c8bb9	-0.23100175
159	0xbe2a5007	-0.1663209
160	0x3cfab6d3	0.030604756
161	0xbddb6f07	-0.10714536
162	0x3d03ed41	0.032208685
163	0x3d4620a8	0.048370987
164	0xbe146612	-0.14492062
165	0xbe2e130d	-0.16999455
166	0xbd7af2b1	-0.061266605
167	0x3cd43a31	0.025906654
168	0x3e5c802d	0.2153327
169	0x3c3db1ac	0.011578005
170	0x3d90498f	0.0704528
171	0xbe6b3bcf	-0.22972034
172	0xbe5ce525	-0.21571787
173	0xbe308a27	-0.17240201
174	0x3e294c6e	0.16533062
175	0xbdea6b09	-0.114461966
176	0xbd9d2fc6	-0.07675128
177	0x3da9bcce	0.08287965
178	0xbea19b8b	-0.31563982
179	0x3d93b13c	0.07211539
180	0xbdd1aaf9	-0.102376886
181	0x3d401335	0.046893317
182	0x3dd43fc7	0.10363727
183	0xbeafeccd	-0.34360352
184	0x3dfeb2f2	0.12436475
185	0xbe34cd9c	-0.17656559
186	0xbdcaaa19	-0.09895725
187	0xbdbc1457	-0.09183567
188	0x3d306ca4	0.043072358
189	0x3de342c9	0.11096723
190	0xbe56c31e	-0.20972869
191	0x3d10d0ba	0.035355307
192	0x3ce89179	0.02838968
193	0xbee18b13	-0.44051418
194	0xbe80a4a5	-0.25125614
195	0x3f00fa93	0.50382346
196	0xbe9790f6	-0.29602784
197	0xbe5dc682	-0.21657756
198	0xbec2cd0c	-0.38047063
199	0xbe50a79a	-0.20376435
200	0xbd09249a	-0.03348217
201	0x3ef71826	0.4826061
202	0x3cb9d256	0.022683304
203	0xbe931832	-0.28729397
204	0x3b91b3f0	0.004446499
205	0xbe33f094	-0.17572242
206	0xbe98e773	-0.29864082
207	0xbe0033bc	-0.12519735
208	0xbe157ca8	-0.14598334
209	0xbe201b44	-0.15635401
210	0xbe400336	-0.18751225
211	0xbeb1f7f0	-0.34759474
212	0x3f164b9f	0.5870914
213	0x3eec7e27	0.46189997
214	0x3dee9833	0.116501234
215	0xbd09da3d	-0.033655394
216	0x3d8b41d8	0.06799668
217	0xbe0a3608	-0.13497174
218	0xbef0b848	-0.47015595
219	0xbe0abcbf	-0.13548563
220	0x3e9b4fe1	0.3033438
221	0x3e14ca7a	0.14530364
222	0xbe0ba456	-0.13636908
223	0xbe94e652	-0.2908197
224	0x3cc46426	0.023973536
225	0x3e2364de	0.15956447
226	0xbd632e79	-0.05546424
227	0xbc8535e2	-0.016261045
228	0x3e6c3c6c	0.23069924
229	0xbe86b2a8	-0.2630818
230	0xbd411b78	-0.047145337
231	0xbe0ae1c4	-0.13562685
232	0x3d54425b	0.051821094
233	0x3bbe3c0d	0.0058054985
234	0x3e8f0afd	0.2793807
235	0xbe48f3c6	-0.19624242
236	0x3dbed263	0.09317472
237	0xbc4dc8e2	-0.012560101
238	0xbe18a719	-0.14907493
239	0xbde68fc9	-0.112578936
240	0x3e937e4d	0.28807297
241	0xbce56bc6	-0.028005492
242	0x3d57bb4d	0.05266886
243	0xbaaf4491	-0.0013371875
244	0x3e5ac13a	0.21362773
245	0xbe8d7c1a	-0.27633744
246	0x3e66d840	0.2254343
247	0xbe2d0a8f	-0.16898559
248	0x3e24dd24	0.16099983
249	0x3b88f635	0.004179741
250	0x3dfe05ff	0.124034874
251	0x3e54dd6e	0.20787594
252	0xbe1100f7	-0.14160524
253	0xbd28cdd6	-0.041211925
254	0x3e19cb32	0.15018919
255	0xbdcb3df5	-0.09923927

l3.bias f4 [10]
0	0x3d27ced6	0.04096874
1	0xbd9fbde0	-0.07799888
2	0xbd0c27b4	-0.03421755
3	0x3da58d1f	0.08083557
4	0xbcc2aafc	-0.023763172
5	0xbe9a24d5	-0.30106226
6	0x3cea9728	0.02863653
7	0xbe5624a2	-0.20912412
8	0x3ea28f9f	0.317502
9	0x3e49eacb	0.19718473

l3.weight f4 [10, 64]
0	0x3e989667	0.29802248
1	0xbf26959a	-0.65072024
2	0xbf0fb415	-0.5613416
3	0x3f4309de	0.7618693
4	0x3e96abd8	0.2942798
5	0x3e883adb	0.26607403
6	0x3e663cd3	0.2248414
7	0xbdc0c39c	-0.094123095
8	0x3d9651f0	0.07339847
9	0xbf0a4208	-0.54007006
10	0xbf487d73	-0.7831642
11	0x3f25e28f	0.64798826
12	0xbf60b494	-0.8777554
13	0xbe135b93	-0.14390402
14	0xbeca5167	-0.3951523
15	0x3ecc9314	0.39955962
16	0xbf7bc305	-0.9834445
17	0x3efa577a	0.48894864
18	0xbe92daab	-0.28682455
19	0xbecfff78	-0.40624595
20	0x3f243855	0.64148456
21	0x3f369fe5	0.7133773
22	0xbec877e1	-0.3915396
23	0x3e49ae6e	0.19695446
24	0xbefd56c8	-0.4948027
25	0xbf88a8b1	-1.067648
26	0x3d208661	0.039190654
27	0xbf5d1789	-0.86364037
28	0x3f04ff77	0.5195231
29	0xbedb99de	-0.4289083
30	0x3f0b3683	0.54380053
31	0xbf5d0093	-0.86329
32	0x3f2a868b	0.66611546
33	0x3f244356	0.64165246
34	0xbf32fe10	-0.6991892
35	0xbf3115f2	-0.6917411
36	0x3ec6ae64	0.38804924
37	0xbf52083a	-0.820438
38	0x3ef96e9f	0.4871721
39	0xbe93f04f	-0.28894278
40	0xbe98f4c8	-0.29874253
41	0xbeca6fc7	-0.39538404
42	0x3ed38f1f	0.4132013
43	0x3ec53b8e	0.38522
44	0x3ef52b00	0.4788437
45	0xbe821c2f	-0.25412127
46	0xbf24df52	-0.6440326
47	0xbc1bfea7	-0.009521163
48	0x3f77ddb4	0.9682267
49	0xbf3dd8cf	-0.7415895
50	0xbeadc2a7	-0.3393757
51	0xbf0a87e4	-0.541136
52	0x3f3fd422	0.74933064
53	0xbed9b892	-0.42523628
54	0xbf2eb8f2	-0.68250954
55	0x3f24765b	0.64243096
56	0x3d5eab88	0.054362804
57	0x3f1d4646	0.61435354
58	0x3e9c3ede	0.30516714
59	0x3f1004b0	0.5625715
60	0x3e9bedaa	0.3045476
61	0xbf50e20a	-0.8159491
62	0xbf128e05	-0.57247955
63	0xbefc066c	-0.4922365
64	0x3eb30057	0.34961197
65	0x3e18b2f2	0.14912012
66	0x3f11e9a2	0.5699712
67	0xbe67c2b2	-0.22632864
68	0x3e96287c	0.29327762
69	0xbdad52c7	-0.08463054
70	0x3d36ecdd	0.044659484
71	0xbf1195d2	-0.5686923
72	0x3e24c9e1	0.16092636
73	0x3f049479	0.5178905
74	0x3f04029f	0.515665
75	0xbea0e05e	-0.3142118
76	0x3eb80752	0.35943085
77	0xbea5aefb	-0.32360062
78	0x3f438b2e	0.76384246
79	0x3ead0dfa	0.33799726
80	0xbde89ecf	-0.11358415
81	0xbf339643	-0.70151156
82	0x3ed4baf2	0.41548878
83	0x3f01ebbd	0.50750333
84	0x3e3ef041	0.18646337
85	0xbe5d083d	-0.21585174
86	0x3f5c7251	0.86111933
87	0xbe1a9134	-0.15094453
88	0x3e840269	0.2578309
89	0x3d78df0e	0.060759597
90	0xbf10bc51	-0.5653735
91	0x3ef8f396	0.4862334
92	0xbf99fd60	-1.2030449
93	0x3ea7bb66	0.3276016
94	0xbec8aede	-0.39195913
95	0x3f02e0d5	0.51124316
96	0xbf44e98f	-0.7691888
97	0xbc366cf5	-0.011134376
98	0x3f26a5e5	0.65096885
99	0x3f2e29e1	0.6803265
100	0xbf4f9d19	-0.81099087
101	0xbf19fce6	-0.6015152
102	0xbf22de63	-0.63620585
103	0x3dbf20ce	0.09332429
104	0x3edcf6d2	0.4315706
105	0x3e379da5	0.1793123
106	0xbf2369ab	-0.6383311
107	0x3f0517f1	0.51989657
108	0xbe98c8ea	-0.29840785
109	0xbf949796	-1.160876
110	0x3f4999ec	0.7875049
111	0x3ee181b2	0.44044262
112	0xbced3a0e	-0.028958347
113	0x3edfdd70	0.4372363
114	0x3d88f530	0.06687391
115	0x3f15eba9	0.58562714
116	0xbf8493ad	-1.0357567
117	0x3dd81d3c	0.10552451
118	0x3ef540da	0.4790104
119	0xbf038894	-0.51380277
120	0x3ea75690	0.3268323
121	0xbef5b0f3	-0.47986564
122	0xbea84327	-0.32863733
123	0x3f798b7d	0.9747847
124	0xbe5943b4	-0.21217233
125	0x3f056800	0.52111816
126	0x3e0f7516	0.14009508
127	0xbee4f53e	-0.44718355
128	0xbe7873bc	-0.24262899
129	0x3edb3be7	0.4281914
130	0x3e89ebb4	0.2693764
131	0xbf12748e	-0.572091
132	0x3f51aca5	0.8190406
133	0x3dc118bb	0.09428545
134	0x3e4bd6ea	0.19906202
135	0x3e8f66da	0.28008157
136	0x3f063ee4	0.52439713
137	0xbfae31c1	-1.3608934
138	0xbf1fc979	-0.624168
139	0x3eb592cc	0.3546356
140	0xbf0fc1a5	-0.56154853
141	0x3f01c390	0.5068903
142	0x3f90d7d5	1.1315867
143	0xbeb60446	-0.35550135
144	0xbf26106b	-0.648688
145	0x3f209d23	0.6273977
146	0x3dccbe9e	0.09997295
147	0x3f60bea9	0.87790924
148	0xbf877a36	-1.0584171
149	0xbebf11a2	-0.3731814
150	0x3f8e4957	1.1116132
151	0x3efefe10	0.4980321
152	0x3e8d5bff	0.2760925
153	0x3e6b6e64	0.2299133
154	0x3e326807	0.17422496
155	0xbed0e62e	-0.40800613
156	0xbdb190cb	-0.08670195
157	0x3e10745d	0.14106889
158	0x3ea5837f	0.32326886
159	0x3d5ed2c8	0.054400235
160	0x3f756c43	0.9586832
161	0x3e96e3e4	0.29470742
162	0x3f2d16b2	0.67612755
163	0x3e9383e4	0.28811562
164	0xbe419930	-0.18906093
165	0x3c2954b8	0.01033514
166	0xbe9967b9	-0.29961947
167	0xbebd41a1	-0.36964133
168	0x3d26cf12	0.04072482
169	0x3ebe48dc	0.37164962
170	0x3ef435d6	0.47697324
171	0x3e471438	0.19441307
172	0x3da958f4	0.082689196
173	0xbf48d232	-0.7844573
174	0xbf3ead47	-0.7448315
175	0x3ec3b77d	0.38225928
176	0xbeebea62	-0.46077257
177	0x3facf939	1.3513557
178	0xbf7f4dd0	-0.9972811
179	0xbec42593	-0.38309917
180	0xbeefe5d3	-0.4685503
181	0x3f60e072	0.87842476
182	0xbfa5373b	-1.290748
183	0x3d378d37	0.044812407
184	0xbf85e18f	-1.045946
185	0xbd9de8e3	-0.07710435
186	0xbe06bb88	-0.13157475
187	0xbe8c0b89	-0.2735255
188	0x3ec86c22	0.39145
189	0x3e157437	0.14595114
190	0xbf2f6b04	-0.6852267
191	0x3f2a592d	0.6654232
192	0x3f0d0660	0.5508785
193	0xbf418805	-0.75598174
194	0x3f3551b6	0.70827806
195	0x3da481c0	0.0803256
196	0xbeff569f	-0.49870774
197	0xbf3f4232	-0.7471038
198	0x3dbba168	0.09161645
199	0x3ea38d36	0.31943673
200	0x3ecd8b64	0.4014541
201	0x3f8383f4	1.0274644
202	0x3f19880c	0.59973216
203	0xbf243fdc	-0.6415994
204	0x3e070772	0.13186434
205	0xbe9efb28	-0.31050992
206	0xbf0fb0e5	-0.56129295
207	0xbf8adc66	-1.084851
208	0x3f14ff61	0.5820218
209	0xbf831d78	-1.0243368
210	0x3ee28adc	0.44246566
211	0x3e58ae7b	0.21160309
212	0x3e1a98cb	0.15097348
213	0x3f514e7f	0.817604
214	0x3f0253c3	0.5090906
215	0x3f41c382	0.75688946
216	0xbf1bf751	-0.6092425
217	0x3f04d97f	0.5189437
218	0x3eb3223b	0.34987053
219	0xbf67d235	-0.90555125
220	0xbe2f92ba	-0.17145815
221	0xbe9fcd83	-0.3121148
222	0xbf997bef	-1.1990947
223	0xbf0fcda7	-0.56173176
224	0x3f2474e4	0.6424086
225	0xbf09f197	-0.5388426
226	0x3f444cc2	0.76679623
227	0xbda6cf01	-0.081449516
228	0xbe0e75d6	-0.13912138
229	0x3e85302f	0.26013324
230	0x3e866932	0.26252133
231	0x3e147bfa	0.14500418
232	0x3f7becec	0.9840839
233	0x3ea39ad4	0.31954062
234	0x3efe8a08	0.49714684
235	0x3e38c9aa	0.18045679
236	0x3e98a021	0.2980967
237	0xbe3f52a1	-0.18683864
238	0xbdf7d3ef	-0.1210097
239	0x3f0674a0	0.52521706
240	0xbf06657b	-0.52498597
241	0x3f5f6a58	0.8727164
242	0xbe0a8625	-0.13527735
243	0x3edc9315	0.43080965
244	0x3b390ca1	0.0028236287
245	0x3eb10bea	0.34579402
246	0xbf04377d	-0.5164717
247	0xbf2a6bf4	-0.66570973
248	0x3eb5ccf7	0.35507938
249	0x3e2e5a09	0.17026533
250	0x3e1538b6	0.14572415
251	0xbe76d81d	-0.24105878
252	0xbed0e46c	-0.40799272
253	0xbeeb0b35	-0.45906988
254	0xbf055999	-0.5208984
255	0x3e9f0921	0.31061652
